{"keras_version": "2.0.9", "config": {"input_layers": [["input_1", 0, 0]], "name": "model_1", "output_layers": [["dense_2", 0, 0]], "layers": [{"name": "input_1", "inbound_nodes": [], "class_name": "InputLayer", "config": {"name": "input_1", "batch_input_shape": [null, null, null, 3], "dtype": "float32", "sparse": false}}, {"name": "conv2d_1", "inbound_nodes": [[["input_1", 0, 0, {}]]], "class_name": "Conv2D", "config": {"data_format": "channels_last", "bias_constraint": null, "filters": 32, "activity_regularizer": null, "strides": [2, 2], "kernel_initializer": {"class_name": "VarianceScaling", "config": {"distribution": "uniform", "scale": 1.0, "seed": null, "mode": "fan_avg"}}, "bias_regularizer": null, "padding": "valid", "kernel_size": [3, 3], "trainable": false, "kernel_constraint": null, "activation": "linear", "name": "conv2d_1", "use_bias": false, "kernel_regularizer": null, "bias_initializer": {"class_name": "Zeros", "config": {}}, "dilation_rate": [1, 1]}}, {"name": "batch_normalization_1", "inbound_nodes": [[["conv2d_1", 0, 0, {}]]], "class_name": "BatchNormalization", "config": {"beta_regularizer": null, "gamma_initializer": {"class_name": "Ones", "config": {}}, "name": "batch_normalization_1", "gamma_constraint": null, "beta_constraint": null, "gamma_regularizer": null, "beta_initializer": {"class_name": "Zeros", "config": {}}, "momentum": 0.99, "trainable": false, "center": true, "scale": false, "axis": 3, "moving_mean_initializer": {"class_name": "Zeros", "config": {}}, "epsilon": 0.001, "moving_variance_initializer": {"class_name": "Ones", "config": {}}}}, {"name": "activation_1", "inbound_nodes": [[["batch_normalization_1", 0, 0, {}]]], "class_name": "Activation", "config": {"name": "activation_1", "activation": "relu", "trainable": false}}, {"name": "conv2d_2", "inbound_nodes": [[["activation_1", 0, 0, {}]]], "class_name": "Conv2D", "config": {"data_format": "channels_last", "bias_constraint": null, "filters": 32, "activity_regularizer": null, "strides": [1, 1], "kernel_initializer": {"class_name": "VarianceScaling", "config": {"distribution": "uniform", "scale": 1.0, "seed": null, "mode": "fan_avg"}}, "bias_regularizer": null, "padding": "valid", "kernel_size": [3, 3], "trainable": false, "kernel_constraint": null, "activation": "linear", "name": "conv2d_2", "use_bias": false, "kernel_regularizer": null, "bias_initializer": {"class_name": "Zeros", "config": {}}, "dilation_rate": [1, 1]}}, {"name": "batch_normalization_2", "inbound_nodes": [[["conv2d_2", 0, 0, {}]]], "class_name": "BatchNormalization", "config": {"beta_regularizer": null, "gamma_initializer": {"class_name": "Ones", "config": {}}, "name": "batch_normalization_2", "gamma_constraint": null, "beta_constraint": null, "gamma_regularizer": null, "beta_initializer": {"class_name": "Zeros", "config": {}}, "momentum": 0.99, "trainable": false, "center": true, "scale": false, "axis": 3, "moving_mean_initializer": {"class_name": "Zeros", "config": {}}, "epsilon": 0.001, "moving_variance_initializer": {"class_name": "Ones", "config": {}}}}, {"name": "activation_2", "inbound_nodes": [[["batch_normalization_2", 0, 0, {}]]], "class_name": "Activation", "config": {"name": "activation_2", "activation": "relu", "trainable": false}}, {"name": "conv2d_3", "inbound_nodes": [[["activation_2", 0, 0, {}]]], "class_name": "Conv2D", "config": {"data_format": "channels_last", "bias_constraint": null, "filters": 64, "activity_regularizer": null, "strides": [1, 1], "kernel_initializer": {"class_name": "VarianceScaling", "config": {"distribution": "uniform", "scale": 1.0, "seed": null, "mode": "fan_avg"}}, "bias_regularizer": null, "padding": "same", "kernel_size": [3, 3], "trainable": false, "kernel_constraint": null, "activation": "linear", "name": "conv2d_3", "use_bias": false, "kernel_regularizer": null, "bias_initializer": {"class_name": "Zeros", "config": {}}, "dilation_rate": [1, 1]}}, {"name": "batch_normalization_3", "inbound_nodes": [[["conv2d_3", 0, 0, {}]]], "class_name": "BatchNormalization", "config": {"beta_regularizer": null, "gamma_initializer": {"class_name": "Ones", "config": {}}, "name": "batch_normalization_3", "gamma_constraint": null, "beta_constraint": null, "gamma_regularizer": null, "beta_initializer": {"class_name": "Zeros", "config": {}}, "momentum": 0.99, "trainable": false, "center": true, "scale": false, "axis": 3, "moving_mean_initializer": {"class_name": "Zeros", "config": {}}, "epsilon": 0.001, "moving_variance_initializer": {"class_name": "Ones", "config": {}}}}, {"name": "activation_3", "inbound_nodes": [[["batch_normalization_3", 0, 0, {}]]], "class_name": "Activation", "config": {"name": "activation_3", "activation": "relu", "trainable": false}}, {"name": "max_pooling2d_1", "inbound_nodes": [[["activation_3", 0, 0, {}]]], "class_name": "MaxPooling2D", "config": {"name": "max_pooling2d_1", "pool_size": [3, 3], "strides": [2, 2], "trainable": false, "padding": "valid", "data_format": "channels_last"}}, {"name": "conv2d_4", "inbound_nodes": [[["max_pooling2d_1", 0, 0, {}]]], "class_name": "Conv2D", "config": {"data_format": "channels_last", "bias_constraint": null, "filters": 80, "activity_regularizer": null, "strides": [1, 1], "kernel_initializer": {"class_name": "VarianceScaling", "config": {"distribution": "uniform", "scale": 1.0, "seed": null, "mode": "fan_avg"}}, "bias_regularizer": null, "padding": "valid", "kernel_size": [1, 1], "trainable": false, "kernel_constraint": null, "activation": "linear", "name": "conv2d_4", "use_bias": false, "kernel_regularizer": null, "bias_initializer": {"class_name": "Zeros", "config": {}}, "dilation_rate": [1, 1]}}, {"name": "batch_normalization_4", "inbound_nodes": [[["conv2d_4", 0, 0, {}]]], "class_name": "BatchNormalization", "config": {"beta_regularizer": null, "gamma_initializer": {"class_name": "Ones", "config": {}}, "name": "batch_normalization_4", "gamma_constraint": null, "beta_constraint": null, "gamma_regularizer": null, "beta_initializer": {"class_name": "Zeros", "config": {}}, "momentum": 0.99, "trainable": false, "center": true, "scale": false, "axis": 3, "moving_mean_initializer": {"class_name": "Zeros", "config": {}}, "epsilon": 0.001, "moving_variance_initializer": {"class_name": "Ones", "config": {}}}}, {"name": "activation_4", "inbound_nodes": [[["batch_normalization_4", 0, 0, {}]]], "class_name": "Activation", "config": {"name": "activation_4", "activation": "relu", "trainable": false}}, {"name": "conv2d_5", "inbound_nodes": [[["activation_4", 0, 0, {}]]], "class_name": "Conv2D", "config": {"data_format": "channels_last", "bias_constraint": null, "filters": 192, "activity_regularizer": null, "strides": [1, 1], "kernel_initializer": {"class_name": "VarianceScaling", "config": {"distribution": "uniform", "scale": 1.0, "seed": null, "mode": "fan_avg"}}, "bias_regularizer": null, "padding": "valid", "kernel_size": [3, 3], "trainable": false, "kernel_constraint": null, "activation": "linear", "name": "conv2d_5", "use_bias": false, "kernel_regularizer": null, "bias_initializer": {"class_name": "Zeros", "config": {}}, "dilation_rate": [1, 1]}}, {"name": "batch_normalization_5", "inbound_nodes": [[["conv2d_5", 0, 0, {}]]], "class_name": "BatchNormalization", "config": {"beta_regularizer": null, "gamma_initializer": {"class_name": "Ones", "config": {}}, "name": "batch_normalization_5", "gamma_constraint": null, "beta_constraint": null, "gamma_regularizer": null, "beta_initializer": {"class_name": "Zeros", "config": {}}, "momentum": 0.99, "trainable": false, "center": true, "scale": false, "axis": 3, "moving_mean_initializer": {"class_name": "Zeros", "config": {}}, "epsilon": 0.001, "moving_variance_initializer": {"class_name": "Ones", "config": {}}}}, {"name": "activation_5", "inbound_nodes": [[["batch_normalization_5", 0, 0, {}]]], "class_name": "Activation", "config": {"name": "activation_5", "activation": "relu", "trainable": false}}, {"name": "max_pooling2d_2", "inbound_nodes": [[["activation_5", 0, 0, {}]]], "class_name": "MaxPooling2D", "config": {"name": "max_pooling2d_2", "pool_size": [3, 3], "strides": [2, 2], "trainable": false, "padding": "valid", "data_format": "channels_last"}}, {"name": "conv2d_9", "inbound_nodes": [[["max_pooling2d_2", 0, 0, {}]]], "class_name": "Conv2D", "config": {"data_format": "channels_last", "bias_constraint": null, "filters": 64, "activity_regularizer": null, "strides": [1, 1], "kernel_initializer": {"class_name": "VarianceScaling", "config": {"distribution": "uniform", "scale": 1.0, "seed": null, "mode": "fan_avg"}}, "bias_regularizer": null, "padding": "same", "kernel_size": [1, 1], "trainable": false, "kernel_constraint": null, "activation": "linear", "name": "conv2d_9", "use_bias": false, "kernel_regularizer": null, "bias_initializer": {"class_name": "Zeros", "config": {}}, "dilation_rate": [1, 1]}}, {"name": "batch_normalization_9", "inbound_nodes": [[["conv2d_9", 0, 0, {}]]], "class_name": "BatchNormalization", "config": {"beta_regularizer": null, "gamma_initializer": {"class_name": "Ones", "config": {}}, "name": "batch_normalization_9", "gamma_constraint": null, "beta_constraint": null, "gamma_regularizer": null, "beta_initializer": {"class_name": "Zeros", "config": {}}, "momentum": 0.99, "trainable": false, "center": true, "scale": false, "axis": 3, "moving_mean_initializer": {"class_name": "Zeros", "config": {}}, "epsilon": 0.001, "moving_variance_initializer": {"class_name": "Ones", "config": {}}}}, {"name": "activation_9", "inbound_nodes": [[["batch_normalization_9", 0, 0, {}]]], "class_name": "Activation", "config": {"name": "activation_9", "activation": "relu", "trainable": false}}, {"name": "conv2d_7", "inbound_nodes": [[["max_pooling2d_2", 0, 0, {}]]], "class_name": "Conv2D", "config": {"data_format": "channels_last", "bias_constraint": null, "filters": 48, "activity_regularizer": null, "strides": [1, 1], "kernel_initializer": {"class_name": "VarianceScaling", "config": {"distribution": "uniform", "scale": 1.0, "seed": null, "mode": "fan_avg"}}, "bias_regularizer": null, "padding": "same", "kernel_size": [1, 1], "trainable": false, "kernel_constraint": null, "activation": "linear", "name": "conv2d_7", "use_bias": false, "kernel_regularizer": null, "bias_initializer": {"class_name": "Zeros", "config": {}}, "dilation_rate": [1, 1]}}, {"name": "conv2d_10", "inbound_nodes": [[["activation_9", 0, 0, {}]]], "class_name": "Conv2D", "config": {"data_format": "channels_last", "bias_constraint": null, "filters": 96, "activity_regularizer": null, "strides": [1, 1], "kernel_initializer": {"class_name": "VarianceScaling", "config": {"distribution": "uniform", "scale": 1.0, "seed": null, "mode": "fan_avg"}}, "bias_regularizer": null, "padding": "same", "kernel_size": [3, 3], "trainable": false, "kernel_constraint": null, "activation": "linear", "name": "conv2d_10", "use_bias": false, "kernel_regularizer": null, "bias_initializer": {"class_name": "Zeros", "config": {}}, "dilation_rate": [1, 1]}}, {"name": "batch_normalization_7", "inbound_nodes": [[["conv2d_7", 0, 0, {}]]], "class_name": "BatchNormalization", "config": {"beta_regularizer": null, "gamma_initializer": {"class_name": "Ones", "config": {}}, "name": "batch_normalization_7", "gamma_constraint": null, "beta_constraint": null, "gamma_regularizer": null, "beta_initializer": {"class_name": "Zeros", "config": {}}, "momentum": 0.99, "trainable": false, "center": true, "scale": false, "axis": 3, "moving_mean_initializer": {"class_name": "Zeros", "config": {}}, "epsilon": 0.001, "moving_variance_initializer": {"class_name": "Ones", "config": {}}}}, {"name": "batch_normalization_10", "inbound_nodes": [[["conv2d_10", 0, 0, {}]]], "class_name": "BatchNormalization", "config": {"beta_regularizer": null, "gamma_initializer": {"class_name": "Ones", "config": {}}, "name": "batch_normalization_10", "gamma_constraint": null, "beta_constraint": null, "gamma_regularizer": null, "beta_initializer": {"class_name": "Zeros", "config": {}}, "momentum": 0.99, "trainable": false, "center": true, "scale": false, "axis": 3, "moving_mean_initializer": {"class_name": "Zeros", "config": {}}, "epsilon": 0.001, "moving_variance_initializer": {"class_name": "Ones", "config": {}}}}, {"name": "activation_7", "inbound_nodes": [[["batch_normalization_7", 0, 0, {}]]], "class_name": "Activation", "config": {"name": "activation_7", "activation": "relu", "trainable": false}}, {"name": "activation_10", "inbound_nodes": [[["batch_normalization_10", 0, 0, {}]]], "class_name": "Activation", "config": {"name": "activation_10", "activation": "relu", "trainable": false}}, {"name": "average_pooling2d_1", "inbound_nodes": [[["max_pooling2d_2", 0, 0, {}]]], "class_name": "AveragePooling2D", "config": {"name": "average_pooling2d_1", "pool_size": [3, 3], "strides": [1, 1], "trainable": false, "padding": "same", "data_format": "channels_last"}}, {"name": "conv2d_6", "inbound_nodes": [[["max_pooling2d_2", 0, 0, {}]]], "class_name": "Conv2D", "config": {"data_format": "channels_last", "bias_constraint": null, "filters": 64, "activity_regularizer": null, "strides": [1, 1], "kernel_initializer": {"class_name": "VarianceScaling", "config": {"distribution": "uniform", "scale": 1.0, "seed": null, "mode": "fan_avg"}}, "bias_regularizer": null, "padding": "same", "kernel_size": [1, 1], "trainable": false, "kernel_constraint": null, "activation": "linear", "name": "conv2d_6", "use_bias": false, "kernel_regularizer": null, "bias_initializer": {"class_name": "Zeros", "config": {}}, "dilation_rate": [1, 1]}}, {"name": "conv2d_8", "inbound_nodes": [[["activation_7", 0, 0, {}]]], "class_name": "Conv2D", "config": {"data_format": "channels_last", "bias_constraint": null, "filters": 64, "activity_regularizer": null, "strides": [1, 1], "kernel_initializer": {"class_name": "VarianceScaling", "config": {"distribution": "uniform", "scale": 1.0, "seed": null, "mode": "fan_avg"}}, "bias_regularizer": null, "padding": "same", "kernel_size": [5, 5], "trainable": false, "kernel_constraint": null, "activation": "linear", "name": "conv2d_8", "use_bias": false, "kernel_regularizer": null, "bias_initializer": {"class_name": "Zeros", "config": {}}, "dilation_rate": [1, 1]}}, {"name": "conv2d_11", "inbound_nodes": [[["activation_10", 0, 0, {}]]], "class_name": "Conv2D", "config": {"data_format": "channels_last", "bias_constraint": null, "filters": 96, "activity_regularizer": null, "strides": [1, 1], "kernel_initializer": {"class_name": "VarianceScaling", "config": {"distribution": "uniform", "scale": 1.0, "seed": null, "mode": "fan_avg"}}, "bias_regularizer": null, "padding": "same", "kernel_size": [3, 3], "trainable": false, "kernel_constraint": null, "activation": "linear", "name": "conv2d_11", "use_bias": false, "kernel_regularizer": null, "bias_initializer": {"class_name": "Zeros", "config": {}}, "dilation_rate": [1, 1]}}, {"name": "conv2d_12", "inbound_nodes": [[["average_pooling2d_1", 0, 0, {}]]], "class_name": "Conv2D", "config": {"data_format": "channels_last", "bias_constraint": null, "filters": 32, "activity_regularizer": null, "strides": [1, 1], "kernel_initializer": {"class_name": "VarianceScaling", "config": {"distribution": "uniform", "scale": 1.0, "seed": null, "mode": "fan_avg"}}, "bias_regularizer": null, "padding": "same", "kernel_size": [1, 1], "trainable": false, "kernel_constraint": null, "activation": "linear", "name": "conv2d_12", "use_bias": false, "kernel_regularizer": null, "bias_initializer": {"class_name": "Zeros", "config": {}}, "dilation_rate": [1, 1]}}, {"name": "batch_normalization_6", "inbound_nodes": [[["conv2d_6", 0, 0, {}]]], "class_name": "BatchNormalization", "config": {"beta_regularizer": null, "gamma_initializer": {"class_name": "Ones", "config": {}}, "name": "batch_normalization_6", "gamma_constraint": null, "beta_constraint": null, "gamma_regularizer": null, "beta_initializer": {"class_name": "Zeros", "config": {}}, "momentum": 0.99, "trainable": false, "center": true, "scale": false, "axis": 3, "moving_mean_initializer": {"class_name": "Zeros", "config": {}}, "epsilon": 0.001, "moving_variance_initializer": {"class_name": "Ones", "config": {}}}}, {"name": "batch_normalization_8", "inbound_nodes": [[["conv2d_8", 0, 0, {}]]], "class_name": "BatchNormalization", "config": {"beta_regularizer": null, "gamma_initializer": {"class_name": "Ones", "config": {}}, "name": "batch_normalization_8", "gamma_constraint": null, "beta_constraint": null, "gamma_regularizer": null, "beta_initializer": {"class_name": "Zeros", "config": {}}, "momentum": 0.99, "trainable": false, "center": true, "scale": false, "axis": 3, "moving_mean_initializer": {"class_name": "Zeros", "config": {}}, "epsilon": 0.001, "moving_variance_initializer": {"class_name": "Ones", "config": {}}}}, {"name": "batch_normalization_11", "inbound_nodes": [[["conv2d_11", 0, 0, {}]]], "class_name": "BatchNormalization", "config": {"beta_regularizer": null, "gamma_initializer": {"class_name": "Ones", "config": {}}, "name": "batch_normalization_11", "gamma_constraint": null, "beta_constraint": null, "gamma_regularizer": null, "beta_initializer": {"class_name": "Zeros", "config": {}}, "momentum": 0.99, "trainable": false, "center": true, "scale": false, "axis": 3, "moving_mean_initializer": {"class_name": "Zeros", "config": {}}, "epsilon": 0.001, "moving_variance_initializer": {"class_name": "Ones", "config": {}}}}, {"name": "batch_normalization_12", "inbound_nodes": [[["conv2d_12", 0, 0, {}]]], "class_name": "BatchNormalization", "config": {"beta_regularizer": null, "gamma_initializer": {"class_name": "Ones", "config": {}}, "name": "batch_normalization_12", "gamma_constraint": null, "beta_constraint": null, "gamma_regularizer": null, "beta_initializer": {"class_name": "Zeros", "config": {}}, "momentum": 0.99, "trainable": false, "center": true, "scale": false, "axis": 3, "moving_mean_initializer": {"class_name": "Zeros", "config": {}}, "epsilon": 0.001, "moving_variance_initializer": {"class_name": "Ones", "config": {}}}}, {"name": "activation_6", "inbound_nodes": [[["batch_normalization_6", 0, 0, {}]]], "class_name": "Activation", "config": {"name": "activation_6", "activation": "relu", "trainable": false}}, {"name": "activation_8", "inbound_nodes": [[["batch_normalization_8", 0, 0, {}]]], "class_name": "Activation", "config": {"name": "activation_8", "activation": "relu", "trainable": false}}, {"name": "activation_11", "inbound_nodes": [[["batch_normalization_11", 0, 0, {}]]], "class_name": "Activation", "config": {"name": "activation_11", "activation": "relu", "trainable": false}}, {"name": "activation_12", "inbound_nodes": [[["batch_normalization_12", 0, 0, {}]]], "class_name": "Activation", "config": {"name": "activation_12", "activation": "relu", "trainable": false}}, {"name": "mixed0", "inbound_nodes": [[["activation_6", 0, 0, {}], ["activation_8", 0, 0, {}], ["activation_11", 0, 0, {}], ["activation_12", 0, 0, {}]]], "class_name": "Concatenate", "config": {"name": "mixed0", "trainable": false, "axis": 3}}, {"name": "conv2d_16", "inbound_nodes": [[["mixed0", 0, 0, {}]]], "class_name": "Conv2D", "config": {"data_format": "channels_last", "bias_constraint": null, "filters": 64, "activity_regularizer": null, "strides": [1, 1], "kernel_initializer": {"class_name": "VarianceScaling", "config": {"distribution": "uniform", "scale": 1.0, "seed": null, "mode": "fan_avg"}}, "bias_regularizer": null, "padding": "same", "kernel_size": [1, 1], "trainable": false, "kernel_constraint": null, "activation": "linear", "name": "conv2d_16", "use_bias": false, "kernel_regularizer": null, "bias_initializer": {"class_name": "Zeros", "config": {}}, "dilation_rate": [1, 1]}}, {"name": "batch_normalization_16", "inbound_nodes": [[["conv2d_16", 0, 0, {}]]], "class_name": "BatchNormalization", "config": {"beta_regularizer": null, "gamma_initializer": {"class_name": "Ones", "config": {}}, "name": "batch_normalization_16", "gamma_constraint": null, "beta_constraint": null, "gamma_regularizer": null, "beta_initializer": {"class_name": "Zeros", "config": {}}, "momentum": 0.99, "trainable": false, "center": true, "scale": false, "axis": 3, "moving_mean_initializer": {"class_name": "Zeros", "config": {}}, "epsilon": 0.001, "moving_variance_initializer": {"class_name": "Ones", "config": {}}}}, {"name": "activation_16", "inbound_nodes": [[["batch_normalization_16", 0, 0, {}]]], "class_name": "Activation", "config": {"name": "activation_16", "activation": "relu", "trainable": false}}, {"name": "conv2d_14", "inbound_nodes": [[["mixed0", 0, 0, {}]]], "class_name": "Conv2D", "config": {"data_format": "channels_last", "bias_constraint": null, "filters": 48, "activity_regularizer": null, "strides": [1, 1], "kernel_initializer": {"class_name": "VarianceScaling", "config": {"distribution": "uniform", "scale": 1.0, "seed": null, "mode": "fan_avg"}}, "bias_regularizer": null, "padding": "same", "kernel_size": [1, 1], "trainable": false, "kernel_constraint": null, "activation": "linear", "name": "conv2d_14", "use_bias": false, "kernel_regularizer": null, "bias_initializer": {"class_name": "Zeros", "config": {}}, "dilation_rate": [1, 1]}}, {"name": "conv2d_17", "inbound_nodes": [[["activation_16", 0, 0, {}]]], "class_name": "Conv2D", "config": {"data_format": "channels_last", "bias_constraint": null, "filters": 96, "activity_regularizer": null, "strides": [1, 1], "kernel_initializer": {"class_name": "VarianceScaling", "config": {"distribution": "uniform", "scale": 1.0, "seed": null, "mode": "fan_avg"}}, "bias_regularizer": null, "padding": "same", "kernel_size": [3, 3], "trainable": false, "kernel_constraint": null, "activation": "linear", "name": "conv2d_17", "use_bias": false, "kernel_regularizer": null, "bias_initializer": {"class_name": "Zeros", "config": {}}, "dilation_rate": [1, 1]}}, {"name": "batch_normalization_14", "inbound_nodes": [[["conv2d_14", 0, 0, {}]]], "class_name": "BatchNormalization", "config": {"beta_regularizer": null, "gamma_initializer": {"class_name": "Ones", "config": {}}, "name": "batch_normalization_14", "gamma_constraint": null, "beta_constraint": null, "gamma_regularizer": null, "beta_initializer": {"class_name": "Zeros", "config": {}}, "momentum": 0.99, "trainable": false, "center": true, "scale": false, "axis": 3, "moving_mean_initializer": {"class_name": "Zeros", "config": {}}, "epsilon": 0.001, "moving_variance_initializer": {"class_name": "Ones", "config": {}}}}, {"name": "batch_normalization_17", "inbound_nodes": [[["conv2d_17", 0, 0, {}]]], "class_name": "BatchNormalization", "config": {"beta_regularizer": null, "gamma_initializer": {"class_name": "Ones", "config": {}}, "name": "batch_normalization_17", "gamma_constraint": null, "beta_constraint": null, "gamma_regularizer": null, "beta_initializer": {"class_name": "Zeros", "config": {}}, "momentum": 0.99, "trainable": false, "center": true, "scale": false, "axis": 3, "moving_mean_initializer": {"class_name": "Zeros", "config": {}}, "epsilon": 0.001, "moving_variance_initializer": {"class_name": "Ones", "config": {}}}}, {"name": "activation_14", "inbound_nodes": [[["batch_normalization_14", 0, 0, {}]]], "class_name": "Activation", "config": {"name": "activation_14", "activation": "relu", "trainable": false}}, {"name": "activation_17", "inbound_nodes": [[["batch_normalization_17", 0, 0, {}]]], "class_name": "Activation", "config": {"name": "activation_17", "activation": "relu", "trainable": false}}, {"name": "average_pooling2d_2", "inbound_nodes": [[["mixed0", 0, 0, {}]]], "class_name": "AveragePooling2D", "config": {"name": "average_pooling2d_2", "pool_size": [3, 3], "strides": [1, 1], "trainable": false, "padding": "same", "data_format": "channels_last"}}, {"name": "conv2d_13", "inbound_nodes": [[["mixed0", 0, 0, {}]]], "class_name": "Conv2D", "config": {"data_format": "channels_last", "bias_constraint": null, "filters": 64, "activity_regularizer": null, "strides": [1, 1], "kernel_initializer": {"class_name": "VarianceScaling", "config": {"distribution": "uniform", "scale": 1.0, "seed": null, "mode": "fan_avg"}}, "bias_regularizer": null, "padding": "same", "kernel_size": [1, 1], "trainable": false, "kernel_constraint": null, "activation": "linear", "name": "conv2d_13", "use_bias": false, "kernel_regularizer": null, "bias_initializer": {"class_name": "Zeros", "config": {}}, "dilation_rate": [1, 1]}}, {"name": "conv2d_15", "inbound_nodes": [[["activation_14", 0, 0, {}]]], "class_name": "Conv2D", "config": {"data_format": "channels_last", "bias_constraint": null, "filters": 64, "activity_regularizer": null, "strides": [1, 1], "kernel_initializer": {"class_name": "VarianceScaling", "config": {"distribution": "uniform", "scale": 1.0, "seed": null, "mode": "fan_avg"}}, "bias_regularizer": null, "padding": "same", "kernel_size": [5, 5], "trainable": false, "kernel_constraint": null, "activation": "linear", "name": "conv2d_15", "use_bias": false, "kernel_regularizer": null, "bias_initializer": {"class_name": "Zeros", "config": {}}, "dilation_rate": [1, 1]}}, {"name": "conv2d_18", "inbound_nodes": [[["activation_17", 0, 0, {}]]], "class_name": "Conv2D", "config": {"data_format": "channels_last", "bias_constraint": null, "filters": 96, "activity_regularizer": null, "strides": [1, 1], "kernel_initializer": {"class_name": "VarianceScaling", "config": {"distribution": "uniform", "scale": 1.0, "seed": null, "mode": "fan_avg"}}, "bias_regularizer": null, "padding": "same", "kernel_size": [3, 3], "trainable": false, "kernel_constraint": null, "activation": "linear", "name": "conv2d_18", "use_bias": false, "kernel_regularizer": null, "bias_initializer": {"class_name": "Zeros", "config": {}}, "dilation_rate": [1, 1]}}, {"name": "conv2d_19", "inbound_nodes": [[["average_pooling2d_2", 0, 0, {}]]], "class_name": "Conv2D", "config": {"data_format": "channels_last", "bias_constraint": null, "filters": 64, "activity_regularizer": null, "strides": [1, 1], "kernel_initializer": {"class_name": "VarianceScaling", "config": {"distribution": "uniform", "scale": 1.0, "seed": null, "mode": "fan_avg"}}, "bias_regularizer": null, "padding": "same", "kernel_size": [1, 1], "trainable": false, "kernel_constraint": null, "activation": "linear", "name": "conv2d_19", "use_bias": false, "kernel_regularizer": null, "bias_initializer": {"class_name": "Zeros", "config": {}}, "dilation_rate": [1, 1]}}, {"name": "batch_normalization_13", "inbound_nodes": [[["conv2d_13", 0, 0, {}]]], "class_name": "BatchNormalization", "config": {"beta_regularizer": null, "gamma_initializer": {"class_name": "Ones", "config": {}}, "name": "batch_normalization_13", "gamma_constraint": null, "beta_constraint": null, "gamma_regularizer": null, "beta_initializer": {"class_name": "Zeros", "config": {}}, "momentum": 0.99, "trainable": false, "center": true, "scale": false, "axis": 3, "moving_mean_initializer": {"class_name": "Zeros", "config": {}}, "epsilon": 0.001, "moving_variance_initializer": {"class_name": "Ones", "config": {}}}}, {"name": "batch_normalization_15", "inbound_nodes": [[["conv2d_15", 0, 0, {}]]], "class_name": "BatchNormalization", "config": {"beta_regularizer": null, "gamma_initializer": {"class_name": "Ones", "config": {}}, "name": "batch_normalization_15", "gamma_constraint": null, "beta_constraint": null, "gamma_regularizer": null, "beta_initializer": {"class_name": "Zeros", "config": {}}, "momentum": 0.99, "trainable": false, "center": true, "scale": false, "axis": 3, "moving_mean_initializer": {"class_name": "Zeros", "config": {}}, "epsilon": 0.001, "moving_variance_initializer": {"class_name": "Ones", "config": {}}}}, {"name": "batch_normalization_18", "inbound_nodes": [[["conv2d_18", 0, 0, {}]]], "class_name": "BatchNormalization", "config": {"beta_regularizer": null, "gamma_initializer": {"class_name": "Ones", "config": {}}, "name": "batch_normalization_18", "gamma_constraint": null, "beta_constraint": null, "gamma_regularizer": null, "beta_initializer": {"class_name": "Zeros", "config": {}}, "momentum": 0.99, "trainable": false, "center": true, "scale": false, "axis": 3, "moving_mean_initializer": {"class_name": "Zeros", "config": {}}, "epsilon": 0.001, "moving_variance_initializer": {"class_name": "Ones", "config": {}}}}, {"name": "batch_normalization_19", "inbound_nodes": [[["conv2d_19", 0, 0, {}]]], "class_name": "BatchNormalization", "config": {"beta_regularizer": null, "gamma_initializer": {"class_name": "Ones", "config": {}}, "name": "batch_normalization_19", "gamma_constraint": null, "beta_constraint": null, "gamma_regularizer": null, "beta_initializer": {"class_name": "Zeros", "config": {}}, "momentum": 0.99, "trainable": false, "center": true, "scale": false, "axis": 3, "moving_mean_initializer": {"class_name": "Zeros", "config": {}}, "epsilon": 0.001, "moving_variance_initializer": {"class_name": "Ones", "config": {}}}}, {"name": "activation_13", "inbound_nodes": [[["batch_normalization_13", 0, 0, {}]]], "class_name": "Activation", "config": {"name": "activation_13", "activation": "relu", "trainable": false}}, {"name": "activation_15", "inbound_nodes": [[["batch_normalization_15", 0, 0, {}]]], "class_name": "Activation", "config": {"name": "activation_15", "activation": "relu", "trainable": false}}, {"name": "activation_18", "inbound_nodes": [[["batch_normalization_18", 0, 0, {}]]], "class_name": "Activation", "config": {"name": "activation_18", "activation": "relu", "trainable": false}}, {"name": "activation_19", "inbound_nodes": [[["batch_normalization_19", 0, 0, {}]]], "class_name": "Activation", "config": {"name": "activation_19", "activation": "relu", "trainable": false}}, {"name": "mixed1", "inbound_nodes": [[["activation_13", 0, 0, {}], ["activation_15", 0, 0, {}], ["activation_18", 0, 0, {}], ["activation_19", 0, 0, {}]]], "class_name": "Concatenate", "config": {"name": "mixed1", "trainable": false, "axis": 3}}, {"name": "conv2d_23", "inbound_nodes": [[["mixed1", 0, 0, {}]]], "class_name": "Conv2D", "config": {"data_format": "channels_last", "bias_constraint": null, "filters": 64, "activity_regularizer": null, "strides": [1, 1], "kernel_initializer": {"class_name": "VarianceScaling", "config": {"distribution": "uniform", "scale": 1.0, "seed": null, "mode": "fan_avg"}}, "bias_regularizer": null, "padding": "same", "kernel_size": [1, 1], "trainable": false, "kernel_constraint": null, "activation": "linear", "name": "conv2d_23", "use_bias": false, "kernel_regularizer": null, "bias_initializer": {"class_name": "Zeros", "config": {}}, "dilation_rate": [1, 1]}}, {"name": "batch_normalization_23", "inbound_nodes": [[["conv2d_23", 0, 0, {}]]], "class_name": "BatchNormalization", "config": {"beta_regularizer": null, "gamma_initializer": {"class_name": "Ones", "config": {}}, "name": "batch_normalization_23", "gamma_constraint": null, "beta_constraint": null, "gamma_regularizer": null, "beta_initializer": {"class_name": "Zeros", "config": {}}, "momentum": 0.99, "trainable": false, "center": true, "scale": false, "axis": 3, "moving_mean_initializer": {"class_name": "Zeros", "config": {}}, "epsilon": 0.001, "moving_variance_initializer": {"class_name": "Ones", "config": {}}}}, {"name": "activation_23", "inbound_nodes": [[["batch_normalization_23", 0, 0, {}]]], "class_name": "Activation", "config": {"name": "activation_23", "activation": "relu", "trainable": false}}, {"name": "conv2d_21", "inbound_nodes": [[["mixed1", 0, 0, {}]]], "class_name": "Conv2D", "config": {"data_format": "channels_last", "bias_constraint": null, "filters": 48, "activity_regularizer": null, "strides": [1, 1], "kernel_initializer": {"class_name": "VarianceScaling", "config": {"distribution": "uniform", "scale": 1.0, "seed": null, "mode": "fan_avg"}}, "bias_regularizer": null, "padding": "same", "kernel_size": [1, 1], "trainable": false, "kernel_constraint": null, "activation": "linear", "name": "conv2d_21", "use_bias": false, "kernel_regularizer": null, "bias_initializer": {"class_name": "Zeros", "config": {}}, "dilation_rate": [1, 1]}}, {"name": "conv2d_24", "inbound_nodes": [[["activation_23", 0, 0, {}]]], "class_name": "Conv2D", "config": {"data_format": "channels_last", "bias_constraint": null, "filters": 96, "activity_regularizer": null, "strides": [1, 1], "kernel_initializer": {"class_name": "VarianceScaling", "config": {"distribution": "uniform", "scale": 1.0, "seed": null, "mode": "fan_avg"}}, "bias_regularizer": null, "padding": "same", "kernel_size": [3, 3], "trainable": false, "kernel_constraint": null, "activation": "linear", "name": "conv2d_24", "use_bias": false, "kernel_regularizer": null, "bias_initializer": {"class_name": "Zeros", "config": {}}, "dilation_rate": [1, 1]}}, {"name": "batch_normalization_21", "inbound_nodes": [[["conv2d_21", 0, 0, {}]]], "class_name": "BatchNormalization", "config": {"beta_regularizer": null, "gamma_initializer": {"class_name": "Ones", "config": {}}, "name": "batch_normalization_21", "gamma_constraint": null, "beta_constraint": null, "gamma_regularizer": null, "beta_initializer": {"class_name": "Zeros", "config": {}}, "momentum": 0.99, "trainable": false, "center": true, "scale": false, "axis": 3, "moving_mean_initializer": {"class_name": "Zeros", "config": {}}, "epsilon": 0.001, "moving_variance_initializer": {"class_name": "Ones", "config": {}}}}, {"name": "batch_normalization_24", "inbound_nodes": [[["conv2d_24", 0, 0, {}]]], "class_name": "BatchNormalization", "config": {"beta_regularizer": null, "gamma_initializer": {"class_name": "Ones", "config": {}}, "name": "batch_normalization_24", "gamma_constraint": null, "beta_constraint": null, "gamma_regularizer": null, "beta_initializer": {"class_name": "Zeros", "config": {}}, "momentum": 0.99, "trainable": false, "center": true, "scale": false, "axis": 3, "moving_mean_initializer": {"class_name": "Zeros", "config": {}}, "epsilon": 0.001, "moving_variance_initializer": {"class_name": "Ones", "config": {}}}}, {"name": "activation_21", "inbound_nodes": [[["batch_normalization_21", 0, 0, {}]]], "class_name": "Activation", "config": {"name": "activation_21", "activation": "relu", "trainable": false}}, {"name": "activation_24", "inbound_nodes": [[["batch_normalization_24", 0, 0, {}]]], "class_name": "Activation", "config": {"name": "activation_24", "activation": "relu", "trainable": false}}, {"name": "average_pooling2d_3", "inbound_nodes": [[["mixed1", 0, 0, {}]]], "class_name": "AveragePooling2D", "config": {"name": "average_pooling2d_3", "pool_size": [3, 3], "strides": [1, 1], "trainable": false, "padding": "same", "data_format": "channels_last"}}, {"name": "conv2d_20", "inbound_nodes": [[["mixed1", 0, 0, {}]]], "class_name": "Conv2D", "config": {"data_format": "channels_last", "bias_constraint": null, "filters": 64, "activity_regularizer": null, "strides": [1, 1], "kernel_initializer": {"class_name": "VarianceScaling", "config": {"distribution": "uniform", "scale": 1.0, "seed": null, "mode": "fan_avg"}}, "bias_regularizer": null, "padding": "same", "kernel_size": [1, 1], "trainable": false, "kernel_constraint": null, "activation": "linear", "name": "conv2d_20", "use_bias": false, "kernel_regularizer": null, "bias_initializer": {"class_name": "Zeros", "config": {}}, "dilation_rate": [1, 1]}}, {"name": "conv2d_22", "inbound_nodes": [[["activation_21", 0, 0, {}]]], "class_name": "Conv2D", "config": {"data_format": "channels_last", "bias_constraint": null, "filters": 64, "activity_regularizer": null, "strides": [1, 1], "kernel_initializer": {"class_name": "VarianceScaling", "config": {"distribution": "uniform", "scale": 1.0, "seed": null, "mode": "fan_avg"}}, "bias_regularizer": null, "padding": "same", "kernel_size": [5, 5], "trainable": false, "kernel_constraint": null, "activation": "linear", "name": "conv2d_22", "use_bias": false, "kernel_regularizer": null, "bias_initializer": {"class_name": "Zeros", "config": {}}, "dilation_rate": [1, 1]}}, {"name": "conv2d_25", "inbound_nodes": [[["activation_24", 0, 0, {}]]], "class_name": "Conv2D", "config": {"data_format": "channels_last", "bias_constraint": null, "filters": 96, "activity_regularizer": null, "strides": [1, 1], "kernel_initializer": {"class_name": "VarianceScaling", "config": {"distribution": "uniform", "scale": 1.0, "seed": null, "mode": "fan_avg"}}, "bias_regularizer": null, "padding": "same", "kernel_size": [3, 3], "trainable": false, "kernel_constraint": null, "activation": "linear", "name": "conv2d_25", "use_bias": false, "kernel_regularizer": null, "bias_initializer": {"class_name": "Zeros", "config": {}}, "dilation_rate": [1, 1]}}, {"name": "conv2d_26", "inbound_nodes": [[["average_pooling2d_3", 0, 0, {}]]], "class_name": "Conv2D", "config": {"data_format": "channels_last", "bias_constraint": null, "filters": 64, "activity_regularizer": null, "strides": [1, 1], "kernel_initializer": {"class_name": "VarianceScaling", "config": {"distribution": "uniform", "scale": 1.0, "seed": null, "mode": "fan_avg"}}, "bias_regularizer": null, "padding": "same", "kernel_size": [1, 1], "trainable": false, "kernel_constraint": null, "activation": "linear", "name": "conv2d_26", "use_bias": false, "kernel_regularizer": null, "bias_initializer": {"class_name": "Zeros", "config": {}}, "dilation_rate": [1, 1]}}, {"name": "batch_normalization_20", "inbound_nodes": [[["conv2d_20", 0, 0, {}]]], "class_name": "BatchNormalization", "config": {"beta_regularizer": null, "gamma_initializer": {"class_name": "Ones", "config": {}}, "name": "batch_normalization_20", "gamma_constraint": null, "beta_constraint": null, "gamma_regularizer": null, "beta_initializer": {"class_name": "Zeros", "config": {}}, "momentum": 0.99, "trainable": false, "center": true, "scale": false, "axis": 3, "moving_mean_initializer": {"class_name": "Zeros", "config": {}}, "epsilon": 0.001, "moving_variance_initializer": {"class_name": "Ones", "config": {}}}}, {"name": "batch_normalization_22", "inbound_nodes": [[["conv2d_22", 0, 0, {}]]], "class_name": "BatchNormalization", "config": {"beta_regularizer": null, "gamma_initializer": {"class_name": "Ones", "config": {}}, "name": "batch_normalization_22", "gamma_constraint": null, "beta_constraint": null, "gamma_regularizer": null, "beta_initializer": {"class_name": "Zeros", "config": {}}, "momentum": 0.99, "trainable": false, "center": true, "scale": false, "axis": 3, "moving_mean_initializer": {"class_name": "Zeros", "config": {}}, "epsilon": 0.001, "moving_variance_initializer": {"class_name": "Ones", "config": {}}}}, {"name": "batch_normalization_25", "inbound_nodes": [[["conv2d_25", 0, 0, {}]]], "class_name": "BatchNormalization", "config": {"beta_regularizer": null, "gamma_initializer": {"class_name": "Ones", "config": {}}, "name": "batch_normalization_25", "gamma_constraint": null, "beta_constraint": null, "gamma_regularizer": null, "beta_initializer": {"class_name": "Zeros", "config": {}}, "momentum": 0.99, "trainable": false, "center": true, "scale": false, "axis": 3, "moving_mean_initializer": {"class_name": "Zeros", "config": {}}, "epsilon": 0.001, "moving_variance_initializer": {"class_name": "Ones", "config": {}}}}, {"name": "batch_normalization_26", "inbound_nodes": [[["conv2d_26", 0, 0, {}]]], "class_name": "BatchNormalization", "config": {"beta_regularizer": null, "gamma_initializer": {"class_name": "Ones", "config": {}}, "name": "batch_normalization_26", "gamma_constraint": null, "beta_constraint": null, "gamma_regularizer": null, "beta_initializer": {"class_name": "Zeros", "config": {}}, "momentum": 0.99, "trainable": false, "center": true, "scale": false, "axis": 3, "moving_mean_initializer": {"class_name": "Zeros", "config": {}}, "epsilon": 0.001, "moving_variance_initializer": {"class_name": "Ones", "config": {}}}}, {"name": "activation_20", "inbound_nodes": [[["batch_normalization_20", 0, 0, {}]]], "class_name": "Activation", "config": {"name": "activation_20", "activation": "relu", "trainable": false}}, {"name": "activation_22", "inbound_nodes": [[["batch_normalization_22", 0, 0, {}]]], "class_name": "Activation", "config": {"name": "activation_22", "activation": "relu", "trainable": false}}, {"name": "activation_25", "inbound_nodes": [[["batch_normalization_25", 0, 0, {}]]], "class_name": "Activation", "config": {"name": "activation_25", "activation": "relu", "trainable": false}}, {"name": "activation_26", "inbound_nodes": [[["batch_normalization_26", 0, 0, {}]]], "class_name": "Activation", "config": {"name": "activation_26", "activation": "relu", "trainable": false}}, {"name": "mixed2", "inbound_nodes": [[["activation_20", 0, 0, {}], ["activation_22", 0, 0, {}], ["activation_25", 0, 0, {}], ["activation_26", 0, 0, {}]]], "class_name": "Concatenate", "config": {"name": "mixed2", "trainable": false, "axis": 3}}, {"name": "conv2d_28", "inbound_nodes": [[["mixed2", 0, 0, {}]]], "class_name": "Conv2D", "config": {"data_format": "channels_last", "bias_constraint": null, "filters": 64, "activity_regularizer": null, "strides": [1, 1], "kernel_initializer": {"class_name": "VarianceScaling", "config": {"distribution": "uniform", "scale": 1.0, "seed": null, "mode": "fan_avg"}}, "bias_regularizer": null, "padding": "same", "kernel_size": [1, 1], "trainable": false, "kernel_constraint": null, "activation": "linear", "name": "conv2d_28", "use_bias": false, "kernel_regularizer": null, "bias_initializer": {"class_name": "Zeros", "config": {}}, "dilation_rate": [1, 1]}}, {"name": "batch_normalization_28", "inbound_nodes": [[["conv2d_28", 0, 0, {}]]], "class_name": "BatchNormalization", "config": {"beta_regularizer": null, "gamma_initializer": {"class_name": "Ones", "config": {}}, "name": "batch_normalization_28", "gamma_constraint": null, "beta_constraint": null, "gamma_regularizer": null, "beta_initializer": {"class_name": "Zeros", "config": {}}, "momentum": 0.99, "trainable": false, "center": true, "scale": false, "axis": 3, "moving_mean_initializer": {"class_name": "Zeros", "config": {}}, "epsilon": 0.001, "moving_variance_initializer": {"class_name": "Ones", "config": {}}}}, {"name": "activation_28", "inbound_nodes": [[["batch_normalization_28", 0, 0, {}]]], "class_name": "Activation", "config": {"name": "activation_28", "activation": "relu", "trainable": false}}, {"name": "conv2d_29", "inbound_nodes": [[["activation_28", 0, 0, {}]]], "class_name": "Conv2D", "config": {"data_format": "channels_last", "bias_constraint": null, "filters": 96, "activity_regularizer": null, "strides": [1, 1], "kernel_initializer": {"class_name": "VarianceScaling", "config": {"distribution": "uniform", "scale": 1.0, "seed": null, "mode": "fan_avg"}}, "bias_regularizer": null, "padding": "same", "kernel_size": [3, 3], "trainable": false, "kernel_constraint": null, "activation": "linear", "name": "conv2d_29", "use_bias": false, "kernel_regularizer": null, "bias_initializer": {"class_name": "Zeros", "config": {}}, "dilation_rate": [1, 1]}}, {"name": "batch_normalization_29", "inbound_nodes": [[["conv2d_29", 0, 0, {}]]], "class_name": "BatchNormalization", "config": {"beta_regularizer": null, "gamma_initializer": {"class_name": "Ones", "config": {}}, "name": "batch_normalization_29", "gamma_constraint": null, "beta_constraint": null, "gamma_regularizer": null, "beta_initializer": {"class_name": "Zeros", "config": {}}, "momentum": 0.99, "trainable": false, "center": true, "scale": false, "axis": 3, "moving_mean_initializer": {"class_name": "Zeros", "config": {}}, "epsilon": 0.001, "moving_variance_initializer": {"class_name": "Ones", "config": {}}}}, {"name": "activation_29", "inbound_nodes": [[["batch_normalization_29", 0, 0, {}]]], "class_name": "Activation", "config": {"name": "activation_29", "activation": "relu", "trainable": false}}, {"name": "conv2d_27", "inbound_nodes": [[["mixed2", 0, 0, {}]]], "class_name": "Conv2D", "config": {"data_format": "channels_last", "bias_constraint": null, "filters": 384, "activity_regularizer": null, "strides": [2, 2], "kernel_initializer": {"class_name": "VarianceScaling", "config": {"distribution": "uniform", "scale": 1.0, "seed": null, "mode": "fan_avg"}}, "bias_regularizer": null, "padding": "valid", "kernel_size": [3, 3], "trainable": false, "kernel_constraint": null, "activation": "linear", "name": "conv2d_27", "use_bias": false, "kernel_regularizer": null, "bias_initializer": {"class_name": "Zeros", "config": {}}, "dilation_rate": [1, 1]}}, {"name": "conv2d_30", "inbound_nodes": [[["activation_29", 0, 0, {}]]], "class_name": "Conv2D", "config": {"data_format": "channels_last", "bias_constraint": null, "filters": 96, "activity_regularizer": null, "strides": [2, 2], "kernel_initializer": {"class_name": "VarianceScaling", "config": {"distribution": "uniform", "scale": 1.0, "seed": null, "mode": "fan_avg"}}, "bias_regularizer": null, "padding": "valid", "kernel_size": [3, 3], "trainable": false, "kernel_constraint": null, "activation": "linear", "name": "conv2d_30", "use_bias": false, "kernel_regularizer": null, "bias_initializer": {"class_name": "Zeros", "config": {}}, "dilation_rate": [1, 1]}}, {"name": "batch_normalization_27", "inbound_nodes": [[["conv2d_27", 0, 0, {}]]], "class_name": "BatchNormalization", "config": {"beta_regularizer": null, "gamma_initializer": {"class_name": "Ones", "config": {}}, "name": "batch_normalization_27", "gamma_constraint": null, "beta_constraint": null, "gamma_regularizer": null, "beta_initializer": {"class_name": "Zeros", "config": {}}, "momentum": 0.99, "trainable": false, "center": true, "scale": false, "axis": 3, "moving_mean_initializer": {"class_name": "Zeros", "config": {}}, "epsilon": 0.001, "moving_variance_initializer": {"class_name": "Ones", "config": {}}}}, {"name": "batch_normalization_30", "inbound_nodes": [[["conv2d_30", 0, 0, {}]]], "class_name": "BatchNormalization", "config": {"beta_regularizer": null, "gamma_initializer": {"class_name": "Ones", "config": {}}, "name": "batch_normalization_30", "gamma_constraint": null, "beta_constraint": null, "gamma_regularizer": null, "beta_initializer": {"class_name": "Zeros", "config": {}}, "momentum": 0.99, "trainable": false, "center": true, "scale": false, "axis": 3, "moving_mean_initializer": {"class_name": "Zeros", "config": {}}, "epsilon": 0.001, "moving_variance_initializer": {"class_name": "Ones", "config": {}}}}, {"name": "activation_27", "inbound_nodes": [[["batch_normalization_27", 0, 0, {}]]], "class_name": "Activation", "config": {"name": "activation_27", "activation": "relu", "trainable": false}}, {"name": "activation_30", "inbound_nodes": [[["batch_normalization_30", 0, 0, {}]]], "class_name": "Activation", "config": {"name": "activation_30", "activation": "relu", "trainable": false}}, {"name": "max_pooling2d_3", "inbound_nodes": [[["mixed2", 0, 0, {}]]], "class_name": "MaxPooling2D", "config": {"name": "max_pooling2d_3", "pool_size": [3, 3], "strides": [2, 2], "trainable": false, "padding": "valid", "data_format": "channels_last"}}, {"name": "mixed3", "inbound_nodes": [[["activation_27", 0, 0, {}], ["activation_30", 0, 0, {}], ["max_pooling2d_3", 0, 0, {}]]], "class_name": "Concatenate", "config": {"name": "mixed3", "trainable": false, "axis": 3}}, {"name": "conv2d_35", "inbound_nodes": [[["mixed3", 0, 0, {}]]], "class_name": "Conv2D", "config": {"data_format": "channels_last", "bias_constraint": null, "filters": 128, "activity_regularizer": null, "strides": [1, 1], "kernel_initializer": {"class_name": "VarianceScaling", "config": {"distribution": "uniform", "scale": 1.0, "seed": null, "mode": "fan_avg"}}, "bias_regularizer": null, "padding": "same", "kernel_size": [1, 1], "trainable": false, "kernel_constraint": null, "activation": "linear", "name": "conv2d_35", "use_bias": false, "kernel_regularizer": null, "bias_initializer": {"class_name": "Zeros", "config": {}}, "dilation_rate": [1, 1]}}, {"name": "batch_normalization_35", "inbound_nodes": [[["conv2d_35", 0, 0, {}]]], "class_name": "BatchNormalization", "config": {"beta_regularizer": null, "gamma_initializer": {"class_name": "Ones", "config": {}}, "name": "batch_normalization_35", "gamma_constraint": null, "beta_constraint": null, "gamma_regularizer": null, "beta_initializer": {"class_name": "Zeros", "config": {}}, "momentum": 0.99, "trainable": false, "center": true, "scale": false, "axis": 3, "moving_mean_initializer": {"class_name": "Zeros", "config": {}}, "epsilon": 0.001, "moving_variance_initializer": {"class_name": "Ones", "config": {}}}}, {"name": "activation_35", "inbound_nodes": [[["batch_normalization_35", 0, 0, {}]]], "class_name": "Activation", "config": {"name": "activation_35", "activation": "relu", "trainable": false}}, {"name": "conv2d_36", "inbound_nodes": [[["activation_35", 0, 0, {}]]], "class_name": "Conv2D", "config": {"data_format": "channels_last", "bias_constraint": null, "filters": 128, "activity_regularizer": null, "strides": [1, 1], "kernel_initializer": {"class_name": "VarianceScaling", "config": {"distribution": "uniform", "scale": 1.0, "seed": null, "mode": "fan_avg"}}, "bias_regularizer": null, "padding": "same", "kernel_size": [7, 1], "trainable": false, "kernel_constraint": null, "activation": "linear", "name": "conv2d_36", "use_bias": false, "kernel_regularizer": null, "bias_initializer": {"class_name": "Zeros", "config": {}}, "dilation_rate": [1, 1]}}, {"name": "batch_normalization_36", "inbound_nodes": [[["conv2d_36", 0, 0, {}]]], "class_name": "BatchNormalization", "config": {"beta_regularizer": null, "gamma_initializer": {"class_name": "Ones", "config": {}}, "name": "batch_normalization_36", "gamma_constraint": null, "beta_constraint": null, "gamma_regularizer": null, "beta_initializer": {"class_name": "Zeros", "config": {}}, "momentum": 0.99, "trainable": false, "center": true, "scale": false, "axis": 3, "moving_mean_initializer": {"class_name": "Zeros", "config": {}}, "epsilon": 0.001, "moving_variance_initializer": {"class_name": "Ones", "config": {}}}}, {"name": "activation_36", "inbound_nodes": [[["batch_normalization_36", 0, 0, {}]]], "class_name": "Activation", "config": {"name": "activation_36", "activation": "relu", "trainable": false}}, {"name": "conv2d_32", "inbound_nodes": [[["mixed3", 0, 0, {}]]], "class_name": "Conv2D", "config": {"data_format": "channels_last", "bias_constraint": null, "filters": 128, "activity_regularizer": null, "strides": [1, 1], "kernel_initializer": {"class_name": "VarianceScaling", "config": {"distribution": "uniform", "scale": 1.0, "seed": null, "mode": "fan_avg"}}, "bias_regularizer": null, "padding": "same", "kernel_size": [1, 1], "trainable": false, "kernel_constraint": null, "activation": "linear", "name": "conv2d_32", "use_bias": false, "kernel_regularizer": null, "bias_initializer": {"class_name": "Zeros", "config": {}}, "dilation_rate": [1, 1]}}, {"name": "conv2d_37", "inbound_nodes": [[["activation_36", 0, 0, {}]]], "class_name": "Conv2D", "config": {"data_format": "channels_last", "bias_constraint": null, "filters": 128, "activity_regularizer": null, "strides": [1, 1], "kernel_initializer": {"class_name": "VarianceScaling", "config": {"distribution": "uniform", "scale": 1.0, "seed": null, "mode": "fan_avg"}}, "bias_regularizer": null, "padding": "same", "kernel_size": [1, 7], "trainable": false, "kernel_constraint": null, "activation": "linear", "name": "conv2d_37", "use_bias": false, "kernel_regularizer": null, "bias_initializer": {"class_name": "Zeros", "config": {}}, "dilation_rate": [1, 1]}}, {"name": "batch_normalization_32", "inbound_nodes": [[["conv2d_32", 0, 0, {}]]], "class_name": "BatchNormalization", "config": {"beta_regularizer": null, "gamma_initializer": {"class_name": "Ones", "config": {}}, "name": "batch_normalization_32", "gamma_constraint": null, "beta_constraint": null, "gamma_regularizer": null, "beta_initializer": {"class_name": "Zeros", "config": {}}, "momentum": 0.99, "trainable": false, "center": true, "scale": false, "axis": 3, "moving_mean_initializer": {"class_name": "Zeros", "config": {}}, "epsilon": 0.001, "moving_variance_initializer": {"class_name": "Ones", "config": {}}}}, {"name": "batch_normalization_37", "inbound_nodes": [[["conv2d_37", 0, 0, {}]]], "class_name": "BatchNormalization", "config": {"beta_regularizer": null, "gamma_initializer": {"class_name": "Ones", "config": {}}, "name": "batch_normalization_37", "gamma_constraint": null, "beta_constraint": null, "gamma_regularizer": null, "beta_initializer": {"class_name": "Zeros", "config": {}}, "momentum": 0.99, "trainable": false, "center": true, "scale": false, "axis": 3, "moving_mean_initializer": {"class_name": "Zeros", "config": {}}, "epsilon": 0.001, "moving_variance_initializer": {"class_name": "Ones", "config": {}}}}, {"name": "activation_32", "inbound_nodes": [[["batch_normalization_32", 0, 0, {}]]], "class_name": "Activation", "config": {"name": "activation_32", "activation": "relu", "trainable": false}}, {"name": "activation_37", "inbound_nodes": [[["batch_normalization_37", 0, 0, {}]]], "class_name": "Activation", "config": {"name": "activation_37", "activation": "relu", "trainable": false}}, {"name": "conv2d_33", "inbound_nodes": [[["activation_32", 0, 0, {}]]], "class_name": "Conv2D", "config": {"data_format": "channels_last", "bias_constraint": null, "filters": 128, "activity_regularizer": null, "strides": [1, 1], "kernel_initializer": {"class_name": "VarianceScaling", "config": {"distribution": "uniform", "scale": 1.0, "seed": null, "mode": "fan_avg"}}, "bias_regularizer": null, "padding": "same", "kernel_size": [1, 7], "trainable": false, "kernel_constraint": null, "activation": "linear", "name": "conv2d_33", "use_bias": false, "kernel_regularizer": null, "bias_initializer": {"class_name": "Zeros", "config": {}}, "dilation_rate": [1, 1]}}, {"name": "conv2d_38", "inbound_nodes": [[["activation_37", 0, 0, {}]]], "class_name": "Conv2D", "config": {"data_format": "channels_last", "bias_constraint": null, "filters": 128, "activity_regularizer": null, "strides": [1, 1], "kernel_initializer": {"class_name": "VarianceScaling", "config": {"distribution": "uniform", "scale": 1.0, "seed": null, "mode": "fan_avg"}}, "bias_regularizer": null, "padding": "same", "kernel_size": [7, 1], "trainable": false, "kernel_constraint": null, "activation": "linear", "name": "conv2d_38", "use_bias": false, "kernel_regularizer": null, "bias_initializer": {"class_name": "Zeros", "config": {}}, "dilation_rate": [1, 1]}}, {"name": "batch_normalization_33", "inbound_nodes": [[["conv2d_33", 0, 0, {}]]], "class_name": "BatchNormalization", "config": {"beta_regularizer": null, "gamma_initializer": {"class_name": "Ones", "config": {}}, "name": "batch_normalization_33", "gamma_constraint": null, "beta_constraint": null, "gamma_regularizer": null, "beta_initializer": {"class_name": "Zeros", "config": {}}, "momentum": 0.99, "trainable": false, "center": true, "scale": false, "axis": 3, "moving_mean_initializer": {"class_name": "Zeros", "config": {}}, "epsilon": 0.001, "moving_variance_initializer": {"class_name": "Ones", "config": {}}}}, {"name": "batch_normalization_38", "inbound_nodes": [[["conv2d_38", 0, 0, {}]]], "class_name": "BatchNormalization", "config": {"beta_regularizer": null, "gamma_initializer": {"class_name": "Ones", "config": {}}, "name": "batch_normalization_38", "gamma_constraint": null, "beta_constraint": null, "gamma_regularizer": null, "beta_initializer": {"class_name": "Zeros", "config": {}}, "momentum": 0.99, "trainable": false, "center": true, "scale": false, "axis": 3, "moving_mean_initializer": {"class_name": "Zeros", "config": {}}, "epsilon": 0.001, "moving_variance_initializer": {"class_name": "Ones", "config": {}}}}, {"name": "activation_33", "inbound_nodes": [[["batch_normalization_33", 0, 0, {}]]], "class_name": "Activation", "config": {"name": "activation_33", "activation": "relu", "trainable": false}}, {"name": "activation_38", "inbound_nodes": [[["batch_normalization_38", 0, 0, {}]]], "class_name": "Activation", "config": {"name": "activation_38", "activation": "relu", "trainable": false}}, {"name": "average_pooling2d_4", "inbound_nodes": [[["mixed3", 0, 0, {}]]], "class_name": "AveragePooling2D", "config": {"name": "average_pooling2d_4", "pool_size": [3, 3], "strides": [1, 1], "trainable": false, "padding": "same", "data_format": "channels_last"}}, {"name": "conv2d_31", "inbound_nodes": [[["mixed3", 0, 0, {}]]], "class_name": "Conv2D", "config": {"data_format": "channels_last", "bias_constraint": null, "filters": 192, "activity_regularizer": null, "strides": [1, 1], "kernel_initializer": {"class_name": "VarianceScaling", "config": {"distribution": "uniform", "scale": 1.0, "seed": null, "mode": "fan_avg"}}, "bias_regularizer": null, "padding": "same", "kernel_size": [1, 1], "trainable": false, "kernel_constraint": null, "activation": "linear", "name": "conv2d_31", "use_bias": false, "kernel_regularizer": null, "bias_initializer": {"class_name": "Zeros", "config": {}}, "dilation_rate": [1, 1]}}, {"name": "conv2d_34", "inbound_nodes": [[["activation_33", 0, 0, {}]]], "class_name": "Conv2D", "config": {"data_format": "channels_last", "bias_constraint": null, "filters": 192, "activity_regularizer": null, "strides": [1, 1], "kernel_initializer": {"class_name": "VarianceScaling", "config": {"distribution": "uniform", "scale": 1.0, "seed": null, "mode": "fan_avg"}}, "bias_regularizer": null, "padding": "same", "kernel_size": [7, 1], "trainable": false, "kernel_constraint": null, "activation": "linear", "name": "conv2d_34", "use_bias": false, "kernel_regularizer": null, "bias_initializer": {"class_name": "Zeros", "config": {}}, "dilation_rate": [1, 1]}}, {"name": "conv2d_39", "inbound_nodes": [[["activation_38", 0, 0, {}]]], "class_name": "Conv2D", "config": {"data_format": "channels_last", "bias_constraint": null, "filters": 192, "activity_regularizer": null, "strides": [1, 1], "kernel_initializer": {"class_name": "VarianceScaling", "config": {"distribution": "uniform", "scale": 1.0, "seed": null, "mode": "fan_avg"}}, "bias_regularizer": null, "padding": "same", "kernel_size": [1, 7], "trainable": false, "kernel_constraint": null, "activation": "linear", "name": "conv2d_39", "use_bias": false, "kernel_regularizer": null, "bias_initializer": {"class_name": "Zeros", "config": {}}, "dilation_rate": [1, 1]}}, {"name": "conv2d_40", "inbound_nodes": [[["average_pooling2d_4", 0, 0, {}]]], "class_name": "Conv2D", "config": {"data_format": "channels_last", "bias_constraint": null, "filters": 192, "activity_regularizer": null, "strides": [1, 1], "kernel_initializer": {"class_name": "VarianceScaling", "config": {"distribution": "uniform", "scale": 1.0, "seed": null, "mode": "fan_avg"}}, "bias_regularizer": null, "padding": "same", "kernel_size": [1, 1], "trainable": false, "kernel_constraint": null, "activation": "linear", "name": "conv2d_40", "use_bias": false, "kernel_regularizer": null, "bias_initializer": {"class_name": "Zeros", "config": {}}, "dilation_rate": [1, 1]}}, {"name": "batch_normalization_31", "inbound_nodes": [[["conv2d_31", 0, 0, {}]]], "class_name": "BatchNormalization", "config": {"beta_regularizer": null, "gamma_initializer": {"class_name": "Ones", "config": {}}, "name": "batch_normalization_31", "gamma_constraint": null, "beta_constraint": null, "gamma_regularizer": null, "beta_initializer": {"class_name": "Zeros", "config": {}}, "momentum": 0.99, "trainable": false, "center": true, "scale": false, "axis": 3, "moving_mean_initializer": {"class_name": "Zeros", "config": {}}, "epsilon": 0.001, "moving_variance_initializer": {"class_name": "Ones", "config": {}}}}, {"name": "batch_normalization_34", "inbound_nodes": [[["conv2d_34", 0, 0, {}]]], "class_name": "BatchNormalization", "config": {"beta_regularizer": null, "gamma_initializer": {"class_name": "Ones", "config": {}}, "name": "batch_normalization_34", "gamma_constraint": null, "beta_constraint": null, "gamma_regularizer": null, "beta_initializer": {"class_name": "Zeros", "config": {}}, "momentum": 0.99, "trainable": false, "center": true, "scale": false, "axis": 3, "moving_mean_initializer": {"class_name": "Zeros", "config": {}}, "epsilon": 0.001, "moving_variance_initializer": {"class_name": "Ones", "config": {}}}}, {"name": "batch_normalization_39", "inbound_nodes": [[["conv2d_39", 0, 0, {}]]], "class_name": "BatchNormalization", "config": {"beta_regularizer": null, "gamma_initializer": {"class_name": "Ones", "config": {}}, "name": "batch_normalization_39", "gamma_constraint": null, "beta_constraint": null, "gamma_regularizer": null, "beta_initializer": {"class_name": "Zeros", "config": {}}, "momentum": 0.99, "trainable": false, "center": true, "scale": false, "axis": 3, "moving_mean_initializer": {"class_name": "Zeros", "config": {}}, "epsilon": 0.001, "moving_variance_initializer": {"class_name": "Ones", "config": {}}}}, {"name": "batch_normalization_40", "inbound_nodes": [[["conv2d_40", 0, 0, {}]]], "class_name": "BatchNormalization", "config": {"beta_regularizer": null, "gamma_initializer": {"class_name": "Ones", "config": {}}, "name": "batch_normalization_40", "gamma_constraint": null, "beta_constraint": null, "gamma_regularizer": null, "beta_initializer": {"class_name": "Zeros", "config": {}}, "momentum": 0.99, "trainable": false, "center": true, "scale": false, "axis": 3, "moving_mean_initializer": {"class_name": "Zeros", "config": {}}, "epsilon": 0.001, "moving_variance_initializer": {"class_name": "Ones", "config": {}}}}, {"name": "activation_31", "inbound_nodes": [[["batch_normalization_31", 0, 0, {}]]], "class_name": "Activation", "config": {"name": "activation_31", "activation": "relu", "trainable": false}}, {"name": "activation_34", "inbound_nodes": [[["batch_normalization_34", 0, 0, {}]]], "class_name": "Activation", "config": {"name": "activation_34", "activation": "relu", "trainable": false}}, {"name": "activation_39", "inbound_nodes": [[["batch_normalization_39", 0, 0, {}]]], "class_name": "Activation", "config": {"name": "activation_39", "activation": "relu", "trainable": false}}, {"name": "activation_40", "inbound_nodes": [[["batch_normalization_40", 0, 0, {}]]], "class_name": "Activation", "config": {"name": "activation_40", "activation": "relu", "trainable": false}}, {"name": "mixed4", "inbound_nodes": [[["activation_31", 0, 0, {}], ["activation_34", 0, 0, {}], ["activation_39", 0, 0, {}], ["activation_40", 0, 0, {}]]], "class_name": "Concatenate", "config": {"name": "mixed4", "trainable": false, "axis": 3}}, {"name": "conv2d_45", "inbound_nodes": [[["mixed4", 0, 0, {}]]], "class_name": "Conv2D", "config": {"data_format": "channels_last", "bias_constraint": null, "filters": 160, "activity_regularizer": null, "strides": [1, 1], "kernel_initializer": {"class_name": "VarianceScaling", "config": {"distribution": "uniform", "scale": 1.0, "seed": null, "mode": "fan_avg"}}, "bias_regularizer": null, "padding": "same", "kernel_size": [1, 1], "trainable": false, "kernel_constraint": null, "activation": "linear", "name": "conv2d_45", "use_bias": false, "kernel_regularizer": null, "bias_initializer": {"class_name": "Zeros", "config": {}}, "dilation_rate": [1, 1]}}, {"name": "batch_normalization_45", "inbound_nodes": [[["conv2d_45", 0, 0, {}]]], "class_name": "BatchNormalization", "config": {"beta_regularizer": null, "gamma_initializer": {"class_name": "Ones", "config": {}}, "name": "batch_normalization_45", "gamma_constraint": null, "beta_constraint": null, "gamma_regularizer": null, "beta_initializer": {"class_name": "Zeros", "config": {}}, "momentum": 0.99, "trainable": false, "center": true, "scale": false, "axis": 3, "moving_mean_initializer": {"class_name": "Zeros", "config": {}}, "epsilon": 0.001, "moving_variance_initializer": {"class_name": "Ones", "config": {}}}}, {"name": "activation_45", "inbound_nodes": [[["batch_normalization_45", 0, 0, {}]]], "class_name": "Activation", "config": {"name": "activation_45", "activation": "relu", "trainable": false}}, {"name": "conv2d_46", "inbound_nodes": [[["activation_45", 0, 0, {}]]], "class_name": "Conv2D", "config": {"data_format": "channels_last", "bias_constraint": null, "filters": 160, "activity_regularizer": null, "strides": [1, 1], "kernel_initializer": {"class_name": "VarianceScaling", "config": {"distribution": "uniform", "scale": 1.0, "seed": null, "mode": "fan_avg"}}, "bias_regularizer": null, "padding": "same", "kernel_size": [7, 1], "trainable": false, "kernel_constraint": null, "activation": "linear", "name": "conv2d_46", "use_bias": false, "kernel_regularizer": null, "bias_initializer": {"class_name": "Zeros", "config": {}}, "dilation_rate": [1, 1]}}, {"name": "batch_normalization_46", "inbound_nodes": [[["conv2d_46", 0, 0, {}]]], "class_name": "BatchNormalization", "config": {"beta_regularizer": null, "gamma_initializer": {"class_name": "Ones", "config": {}}, "name": "batch_normalization_46", "gamma_constraint": null, "beta_constraint": null, "gamma_regularizer": null, "beta_initializer": {"class_name": "Zeros", "config": {}}, "momentum": 0.99, "trainable": false, "center": true, "scale": false, "axis": 3, "moving_mean_initializer": {"class_name": "Zeros", "config": {}}, "epsilon": 0.001, "moving_variance_initializer": {"class_name": "Ones", "config": {}}}}, {"name": "activation_46", "inbound_nodes": [[["batch_normalization_46", 0, 0, {}]]], "class_name": "Activation", "config": {"name": "activation_46", "activation": "relu", "trainable": false}}, {"name": "conv2d_42", "inbound_nodes": [[["mixed4", 0, 0, {}]]], "class_name": "Conv2D", "config": {"data_format": "channels_last", "bias_constraint": null, "filters": 160, "activity_regularizer": null, "strides": [1, 1], "kernel_initializer": {"class_name": "VarianceScaling", "config": {"distribution": "uniform", "scale": 1.0, "seed": null, "mode": "fan_avg"}}, "bias_regularizer": null, "padding": "same", "kernel_size": [1, 1], "trainable": false, "kernel_constraint": null, "activation": "linear", "name": "conv2d_42", "use_bias": false, "kernel_regularizer": null, "bias_initializer": {"class_name": "Zeros", "config": {}}, "dilation_rate": [1, 1]}}, {"name": "conv2d_47", "inbound_nodes": [[["activation_46", 0, 0, {}]]], "class_name": "Conv2D", "config": {"data_format": "channels_last", "bias_constraint": null, "filters": 160, "activity_regularizer": null, "strides": [1, 1], "kernel_initializer": {"class_name": "VarianceScaling", "config": {"distribution": "uniform", "scale": 1.0, "seed": null, "mode": "fan_avg"}}, "bias_regularizer": null, "padding": "same", "kernel_size": [1, 7], "trainable": false, "kernel_constraint": null, "activation": "linear", "name": "conv2d_47", "use_bias": false, "kernel_regularizer": null, "bias_initializer": {"class_name": "Zeros", "config": {}}, "dilation_rate": [1, 1]}}, {"name": "batch_normalization_42", "inbound_nodes": [[["conv2d_42", 0, 0, {}]]], "class_name": "BatchNormalization", "config": {"beta_regularizer": null, "gamma_initializer": {"class_name": "Ones", "config": {}}, "name": "batch_normalization_42", "gamma_constraint": null, "beta_constraint": null, "gamma_regularizer": null, "beta_initializer": {"class_name": "Zeros", "config": {}}, "momentum": 0.99, "trainable": false, "center": true, "scale": false, "axis": 3, "moving_mean_initializer": {"class_name": "Zeros", "config": {}}, "epsilon": 0.001, "moving_variance_initializer": {"class_name": "Ones", "config": {}}}}, {"name": "batch_normalization_47", "inbound_nodes": [[["conv2d_47", 0, 0, {}]]], "class_name": "BatchNormalization", "config": {"beta_regularizer": null, "gamma_initializer": {"class_name": "Ones", "config": {}}, "name": "batch_normalization_47", "gamma_constraint": null, "beta_constraint": null, "gamma_regularizer": null, "beta_initializer": {"class_name": "Zeros", "config": {}}, "momentum": 0.99, "trainable": false, "center": true, "scale": false, "axis": 3, "moving_mean_initializer": {"class_name": "Zeros", "config": {}}, "epsilon": 0.001, "moving_variance_initializer": {"class_name": "Ones", "config": {}}}}, {"name": "activation_42", "inbound_nodes": [[["batch_normalization_42", 0, 0, {}]]], "class_name": "Activation", "config": {"name": "activation_42", "activation": "relu", "trainable": false}}, {"name": "activation_47", "inbound_nodes": [[["batch_normalization_47", 0, 0, {}]]], "class_name": "Activation", "config": {"name": "activation_47", "activation": "relu", "trainable": false}}, {"name": "conv2d_43", "inbound_nodes": [[["activation_42", 0, 0, {}]]], "class_name": "Conv2D", "config": {"data_format": "channels_last", "bias_constraint": null, "filters": 160, "activity_regularizer": null, "strides": [1, 1], "kernel_initializer": {"class_name": "VarianceScaling", "config": {"distribution": "uniform", "scale": 1.0, "seed": null, "mode": "fan_avg"}}, "bias_regularizer": null, "padding": "same", "kernel_size": [1, 7], "trainable": false, "kernel_constraint": null, "activation": "linear", "name": "conv2d_43", "use_bias": false, "kernel_regularizer": null, "bias_initializer": {"class_name": "Zeros", "config": {}}, "dilation_rate": [1, 1]}}, {"name": "conv2d_48", "inbound_nodes": [[["activation_47", 0, 0, {}]]], "class_name": "Conv2D", "config": {"data_format": "channels_last", "bias_constraint": null, "filters": 160, "activity_regularizer": null, "strides": [1, 1], "kernel_initializer": {"class_name": "VarianceScaling", "config": {"distribution": "uniform", "scale": 1.0, "seed": null, "mode": "fan_avg"}}, "bias_regularizer": null, "padding": "same", "kernel_size": [7, 1], "trainable": false, "kernel_constraint": null, "activation": "linear", "name": "conv2d_48", "use_bias": false, "kernel_regularizer": null, "bias_initializer": {"class_name": "Zeros", "config": {}}, "dilation_rate": [1, 1]}}, {"name": "batch_normalization_43", "inbound_nodes": [[["conv2d_43", 0, 0, {}]]], "class_name": "BatchNormalization", "config": {"beta_regularizer": null, "gamma_initializer": {"class_name": "Ones", "config": {}}, "name": "batch_normalization_43", "gamma_constraint": null, "beta_constraint": null, "gamma_regularizer": null, "beta_initializer": {"class_name": "Zeros", "config": {}}, "momentum": 0.99, "trainable": false, "center": true, "scale": false, "axis": 3, "moving_mean_initializer": {"class_name": "Zeros", "config": {}}, "epsilon": 0.001, "moving_variance_initializer": {"class_name": "Ones", "config": {}}}}, {"name": "batch_normalization_48", "inbound_nodes": [[["conv2d_48", 0, 0, {}]]], "class_name": "BatchNormalization", "config": {"beta_regularizer": null, "gamma_initializer": {"class_name": "Ones", "config": {}}, "name": "batch_normalization_48", "gamma_constraint": null, "beta_constraint": null, "gamma_regularizer": null, "beta_initializer": {"class_name": "Zeros", "config": {}}, "momentum": 0.99, "trainable": false, "center": true, "scale": false, "axis": 3, "moving_mean_initializer": {"class_name": "Zeros", "config": {}}, "epsilon": 0.001, "moving_variance_initializer": {"class_name": "Ones", "config": {}}}}, {"name": "activation_43", "inbound_nodes": [[["batch_normalization_43", 0, 0, {}]]], "class_name": "Activation", "config": {"name": "activation_43", "activation": "relu", "trainable": false}}, {"name": "activation_48", "inbound_nodes": [[["batch_normalization_48", 0, 0, {}]]], "class_name": "Activation", "config": {"name": "activation_48", "activation": "relu", "trainable": false}}, {"name": "average_pooling2d_5", "inbound_nodes": [[["mixed4", 0, 0, {}]]], "class_name": "AveragePooling2D", "config": {"name": "average_pooling2d_5", "pool_size": [3, 3], "strides": [1, 1], "trainable": false, "padding": "same", "data_format": "channels_last"}}, {"name": "conv2d_41", "inbound_nodes": [[["mixed4", 0, 0, {}]]], "class_name": "Conv2D", "config": {"data_format": "channels_last", "bias_constraint": null, "filters": 192, "activity_regularizer": null, "strides": [1, 1], "kernel_initializer": {"class_name": "VarianceScaling", "config": {"distribution": "uniform", "scale": 1.0, "seed": null, "mode": "fan_avg"}}, "bias_regularizer": null, "padding": "same", "kernel_size": [1, 1], "trainable": false, "kernel_constraint": null, "activation": "linear", "name": "conv2d_41", "use_bias": false, "kernel_regularizer": null, "bias_initializer": {"class_name": "Zeros", "config": {}}, "dilation_rate": [1, 1]}}, {"name": "conv2d_44", "inbound_nodes": [[["activation_43", 0, 0, {}]]], "class_name": "Conv2D", "config": {"data_format": "channels_last", "bias_constraint": null, "filters": 192, "activity_regularizer": null, "strides": [1, 1], "kernel_initializer": {"class_name": "VarianceScaling", "config": {"distribution": "uniform", "scale": 1.0, "seed": null, "mode": "fan_avg"}}, "bias_regularizer": null, "padding": "same", "kernel_size": [7, 1], "trainable": false, "kernel_constraint": null, "activation": "linear", "name": "conv2d_44", "use_bias": false, "kernel_regularizer": null, "bias_initializer": {"class_name": "Zeros", "config": {}}, "dilation_rate": [1, 1]}}, {"name": "conv2d_49", "inbound_nodes": [[["activation_48", 0, 0, {}]]], "class_name": "Conv2D", "config": {"data_format": "channels_last", "bias_constraint": null, "filters": 192, "activity_regularizer": null, "strides": [1, 1], "kernel_initializer": {"class_name": "VarianceScaling", "config": {"distribution": "uniform", "scale": 1.0, "seed": null, "mode": "fan_avg"}}, "bias_regularizer": null, "padding": "same", "kernel_size": [1, 7], "trainable": false, "kernel_constraint": null, "activation": "linear", "name": "conv2d_49", "use_bias": false, "kernel_regularizer": null, "bias_initializer": {"class_name": "Zeros", "config": {}}, "dilation_rate": [1, 1]}}, {"name": "conv2d_50", "inbound_nodes": [[["average_pooling2d_5", 0, 0, {}]]], "class_name": "Conv2D", "config": {"data_format": "channels_last", "bias_constraint": null, "filters": 192, "activity_regularizer": null, "strides": [1, 1], "kernel_initializer": {"class_name": "VarianceScaling", "config": {"distribution": "uniform", "scale": 1.0, "seed": null, "mode": "fan_avg"}}, "bias_regularizer": null, "padding": "same", "kernel_size": [1, 1], "trainable": false, "kernel_constraint": null, "activation": "linear", "name": "conv2d_50", "use_bias": false, "kernel_regularizer": null, "bias_initializer": {"class_name": "Zeros", "config": {}}, "dilation_rate": [1, 1]}}, {"name": "batch_normalization_41", "inbound_nodes": [[["conv2d_41", 0, 0, {}]]], "class_name": "BatchNormalization", "config": {"beta_regularizer": null, "gamma_initializer": {"class_name": "Ones", "config": {}}, "name": "batch_normalization_41", "gamma_constraint": null, "beta_constraint": null, "gamma_regularizer": null, "beta_initializer": {"class_name": "Zeros", "config": {}}, "momentum": 0.99, "trainable": false, "center": true, "scale": false, "axis": 3, "moving_mean_initializer": {"class_name": "Zeros", "config": {}}, "epsilon": 0.001, "moving_variance_initializer": {"class_name": "Ones", "config": {}}}}, {"name": "batch_normalization_44", "inbound_nodes": [[["conv2d_44", 0, 0, {}]]], "class_name": "BatchNormalization", "config": {"beta_regularizer": null, "gamma_initializer": {"class_name": "Ones", "config": {}}, "name": "batch_normalization_44", "gamma_constraint": null, "beta_constraint": null, "gamma_regularizer": null, "beta_initializer": {"class_name": "Zeros", "config": {}}, "momentum": 0.99, "trainable": false, "center": true, "scale": false, "axis": 3, "moving_mean_initializer": {"class_name": "Zeros", "config": {}}, "epsilon": 0.001, "moving_variance_initializer": {"class_name": "Ones", "config": {}}}}, {"name": "batch_normalization_49", "inbound_nodes": [[["conv2d_49", 0, 0, {}]]], "class_name": "BatchNormalization", "config": {"beta_regularizer": null, "gamma_initializer": {"class_name": "Ones", "config": {}}, "name": "batch_normalization_49", "gamma_constraint": null, "beta_constraint": null, "gamma_regularizer": null, "beta_initializer": {"class_name": "Zeros", "config": {}}, "momentum": 0.99, "trainable": false, "center": true, "scale": false, "axis": 3, "moving_mean_initializer": {"class_name": "Zeros", "config": {}}, "epsilon": 0.001, "moving_variance_initializer": {"class_name": "Ones", "config": {}}}}, {"name": "batch_normalization_50", "inbound_nodes": [[["conv2d_50", 0, 0, {}]]], "class_name": "BatchNormalization", "config": {"beta_regularizer": null, "gamma_initializer": {"class_name": "Ones", "config": {}}, "name": "batch_normalization_50", "gamma_constraint": null, "beta_constraint": null, "gamma_regularizer": null, "beta_initializer": {"class_name": "Zeros", "config": {}}, "momentum": 0.99, "trainable": false, "center": true, "scale": false, "axis": 3, "moving_mean_initializer": {"class_name": "Zeros", "config": {}}, "epsilon": 0.001, "moving_variance_initializer": {"class_name": "Ones", "config": {}}}}, {"name": "activation_41", "inbound_nodes": [[["batch_normalization_41", 0, 0, {}]]], "class_name": "Activation", "config": {"name": "activation_41", "activation": "relu", "trainable": false}}, {"name": "activation_44", "inbound_nodes": [[["batch_normalization_44", 0, 0, {}]]], "class_name": "Activation", "config": {"name": "activation_44", "activation": "relu", "trainable": false}}, {"name": "activation_49", "inbound_nodes": [[["batch_normalization_49", 0, 0, {}]]], "class_name": "Activation", "config": {"name": "activation_49", "activation": "relu", "trainable": false}}, {"name": "activation_50", "inbound_nodes": [[["batch_normalization_50", 0, 0, {}]]], "class_name": "Activation", "config": {"name": "activation_50", "activation": "relu", "trainable": false}}, {"name": "mixed5", "inbound_nodes": [[["activation_41", 0, 0, {}], ["activation_44", 0, 0, {}], ["activation_49", 0, 0, {}], ["activation_50", 0, 0, {}]]], "class_name": "Concatenate", "config": {"name": "mixed5", "trainable": false, "axis": 3}}, {"name": "conv2d_55", "inbound_nodes": [[["mixed5", 0, 0, {}]]], "class_name": "Conv2D", "config": {"data_format": "channels_last", "bias_constraint": null, "filters": 160, "activity_regularizer": null, "strides": [1, 1], "kernel_initializer": {"class_name": "VarianceScaling", "config": {"distribution": "uniform", "scale": 1.0, "seed": null, "mode": "fan_avg"}}, "bias_regularizer": null, "padding": "same", "kernel_size": [1, 1], "trainable": false, "kernel_constraint": null, "activation": "linear", "name": "conv2d_55", "use_bias": false, "kernel_regularizer": null, "bias_initializer": {"class_name": "Zeros", "config": {}}, "dilation_rate": [1, 1]}}, {"name": "batch_normalization_55", "inbound_nodes": [[["conv2d_55", 0, 0, {}]]], "class_name": "BatchNormalization", "config": {"beta_regularizer": null, "gamma_initializer": {"class_name": "Ones", "config": {}}, "name": "batch_normalization_55", "gamma_constraint": null, "beta_constraint": null, "gamma_regularizer": null, "beta_initializer": {"class_name": "Zeros", "config": {}}, "momentum": 0.99, "trainable": false, "center": true, "scale": false, "axis": 3, "moving_mean_initializer": {"class_name": "Zeros", "config": {}}, "epsilon": 0.001, "moving_variance_initializer": {"class_name": "Ones", "config": {}}}}, {"name": "activation_55", "inbound_nodes": [[["batch_normalization_55", 0, 0, {}]]], "class_name": "Activation", "config": {"name": "activation_55", "activation": "relu", "trainable": false}}, {"name": "conv2d_56", "inbound_nodes": [[["activation_55", 0, 0, {}]]], "class_name": "Conv2D", "config": {"data_format": "channels_last", "bias_constraint": null, "filters": 160, "activity_regularizer": null, "strides": [1, 1], "kernel_initializer": {"class_name": "VarianceScaling", "config": {"distribution": "uniform", "scale": 1.0, "seed": null, "mode": "fan_avg"}}, "bias_regularizer": null, "padding": "same", "kernel_size": [7, 1], "trainable": false, "kernel_constraint": null, "activation": "linear", "name": "conv2d_56", "use_bias": false, "kernel_regularizer": null, "bias_initializer": {"class_name": "Zeros", "config": {}}, "dilation_rate": [1, 1]}}, {"name": "batch_normalization_56", "inbound_nodes": [[["conv2d_56", 0, 0, {}]]], "class_name": "BatchNormalization", "config": {"beta_regularizer": null, "gamma_initializer": {"class_name": "Ones", "config": {}}, "name": "batch_normalization_56", "gamma_constraint": null, "beta_constraint": null, "gamma_regularizer": null, "beta_initializer": {"class_name": "Zeros", "config": {}}, "momentum": 0.99, "trainable": false, "center": true, "scale": false, "axis": 3, "moving_mean_initializer": {"class_name": "Zeros", "config": {}}, "epsilon": 0.001, "moving_variance_initializer": {"class_name": "Ones", "config": {}}}}, {"name": "activation_56", "inbound_nodes": [[["batch_normalization_56", 0, 0, {}]]], "class_name": "Activation", "config": {"name": "activation_56", "activation": "relu", "trainable": false}}, {"name": "conv2d_52", "inbound_nodes": [[["mixed5", 0, 0, {}]]], "class_name": "Conv2D", "config": {"data_format": "channels_last", "bias_constraint": null, "filters": 160, "activity_regularizer": null, "strides": [1, 1], "kernel_initializer": {"class_name": "VarianceScaling", "config": {"distribution": "uniform", "scale": 1.0, "seed": null, "mode": "fan_avg"}}, "bias_regularizer": null, "padding": "same", "kernel_size": [1, 1], "trainable": false, "kernel_constraint": null, "activation": "linear", "name": "conv2d_52", "use_bias": false, "kernel_regularizer": null, "bias_initializer": {"class_name": "Zeros", "config": {}}, "dilation_rate": [1, 1]}}, {"name": "conv2d_57", "inbound_nodes": [[["activation_56", 0, 0, {}]]], "class_name": "Conv2D", "config": {"data_format": "channels_last", "bias_constraint": null, "filters": 160, "activity_regularizer": null, "strides": [1, 1], "kernel_initializer": {"class_name": "VarianceScaling", "config": {"distribution": "uniform", "scale": 1.0, "seed": null, "mode": "fan_avg"}}, "bias_regularizer": null, "padding": "same", "kernel_size": [1, 7], "trainable": true, "kernel_constraint": null, "activation": "linear", "name": "conv2d_57", "use_bias": false, "kernel_regularizer": null, "bias_initializer": {"class_name": "Zeros", "config": {}}, "dilation_rate": [1, 1]}}, {"name": "batch_normalization_52", "inbound_nodes": [[["conv2d_52", 0, 0, {}]]], "class_name": "BatchNormalization", "config": {"beta_regularizer": null, "gamma_initializer": {"class_name": "Ones", "config": {}}, "name": "batch_normalization_52", "gamma_constraint": null, "beta_constraint": null, "gamma_regularizer": null, "beta_initializer": {"class_name": "Zeros", "config": {}}, "momentum": 0.99, "trainable": true, "center": true, "scale": false, "axis": 3, "moving_mean_initializer": {"class_name": "Zeros", "config": {}}, "epsilon": 0.001, "moving_variance_initializer": {"class_name": "Ones", "config": {}}}}, {"name": "batch_normalization_57", "inbound_nodes": [[["conv2d_57", 0, 0, {}]]], "class_name": "BatchNormalization", "config": {"beta_regularizer": null, "gamma_initializer": {"class_name": "Ones", "config": {}}, "name": "batch_normalization_57", "gamma_constraint": null, "beta_constraint": null, "gamma_regularizer": null, "beta_initializer": {"class_name": "Zeros", "config": {}}, "momentum": 0.99, "trainable": true, "center": true, "scale": false, "axis": 3, "moving_mean_initializer": {"class_name": "Zeros", "config": {}}, "epsilon": 0.001, "moving_variance_initializer": {"class_name": "Ones", "config": {}}}}, {"name": "activation_52", "inbound_nodes": [[["batch_normalization_52", 0, 0, {}]]], "class_name": "Activation", "config": {"name": "activation_52", "activation": "relu", "trainable": true}}, {"name": "activation_57", "inbound_nodes": [[["batch_normalization_57", 0, 0, {}]]], "class_name": "Activation", "config": {"name": "activation_57", "activation": "relu", "trainable": true}}, {"name": "conv2d_53", "inbound_nodes": [[["activation_52", 0, 0, {}]]], "class_name": "Conv2D", "config": {"data_format": "channels_last", "bias_constraint": null, "filters": 160, "activity_regularizer": null, "strides": [1, 1], "kernel_initializer": {"class_name": "VarianceScaling", "config": {"distribution": "uniform", "scale": 1.0, "seed": null, "mode": "fan_avg"}}, "bias_regularizer": null, "padding": "same", "kernel_size": [1, 7], "trainable": true, "kernel_constraint": null, "activation": "linear", "name": "conv2d_53", "use_bias": false, "kernel_regularizer": null, "bias_initializer": {"class_name": "Zeros", "config": {}}, "dilation_rate": [1, 1]}}, {"name": "conv2d_58", "inbound_nodes": [[["activation_57", 0, 0, {}]]], "class_name": "Conv2D", "config": {"data_format": "channels_last", "bias_constraint": null, "filters": 160, "activity_regularizer": null, "strides": [1, 1], "kernel_initializer": {"class_name": "VarianceScaling", "config": {"distribution": "uniform", "scale": 1.0, "seed": null, "mode": "fan_avg"}}, "bias_regularizer": null, "padding": "same", "kernel_size": [7, 1], "trainable": true, "kernel_constraint": null, "activation": "linear", "name": "conv2d_58", "use_bias": false, "kernel_regularizer": null, "bias_initializer": {"class_name": "Zeros", "config": {}}, "dilation_rate": [1, 1]}}, {"name": "batch_normalization_53", "inbound_nodes": [[["conv2d_53", 0, 0, {}]]], "class_name": "BatchNormalization", "config": {"beta_regularizer": null, "gamma_initializer": {"class_name": "Ones", "config": {}}, "name": "batch_normalization_53", "gamma_constraint": null, "beta_constraint": null, "gamma_regularizer": null, "beta_initializer": {"class_name": "Zeros", "config": {}}, "momentum": 0.99, "trainable": true, "center": true, "scale": false, "axis": 3, "moving_mean_initializer": {"class_name": "Zeros", "config": {}}, "epsilon": 0.001, "moving_variance_initializer": {"class_name": "Ones", "config": {}}}}, {"name": "batch_normalization_58", "inbound_nodes": [[["conv2d_58", 0, 0, {}]]], "class_name": "BatchNormalization", "config": {"beta_regularizer": null, "gamma_initializer": {"class_name": "Ones", "config": {}}, "name": "batch_normalization_58", "gamma_constraint": null, "beta_constraint": null, "gamma_regularizer": null, "beta_initializer": {"class_name": "Zeros", "config": {}}, "momentum": 0.99, "trainable": true, "center": true, "scale": false, "axis": 3, "moving_mean_initializer": {"class_name": "Zeros", "config": {}}, "epsilon": 0.001, "moving_variance_initializer": {"class_name": "Ones", "config": {}}}}, {"name": "activation_53", "inbound_nodes": [[["batch_normalization_53", 0, 0, {}]]], "class_name": "Activation", "config": {"name": "activation_53", "activation": "relu", "trainable": true}}, {"name": "activation_58", "inbound_nodes": [[["batch_normalization_58", 0, 0, {}]]], "class_name": "Activation", "config": {"name": "activation_58", "activation": "relu", "trainable": true}}, {"name": "average_pooling2d_6", "inbound_nodes": [[["mixed5", 0, 0, {}]]], "class_name": "AveragePooling2D", "config": {"name": "average_pooling2d_6", "pool_size": [3, 3], "strides": [1, 1], "trainable": true, "padding": "same", "data_format": "channels_last"}}, {"name": "conv2d_51", "inbound_nodes": [[["mixed5", 0, 0, {}]]], "class_name": "Conv2D", "config": {"data_format": "channels_last", "bias_constraint": null, "filters": 192, "activity_regularizer": null, "strides": [1, 1], "kernel_initializer": {"class_name": "VarianceScaling", "config": {"distribution": "uniform", "scale": 1.0, "seed": null, "mode": "fan_avg"}}, "bias_regularizer": null, "padding": "same", "kernel_size": [1, 1], "trainable": true, "kernel_constraint": null, "activation": "linear", "name": "conv2d_51", "use_bias": false, "kernel_regularizer": null, "bias_initializer": {"class_name": "Zeros", "config": {}}, "dilation_rate": [1, 1]}}, {"name": "conv2d_54", "inbound_nodes": [[["activation_53", 0, 0, {}]]], "class_name": "Conv2D", "config": {"data_format": "channels_last", "bias_constraint": null, "filters": 192, "activity_regularizer": null, "strides": [1, 1], "kernel_initializer": {"class_name": "VarianceScaling", "config": {"distribution": "uniform", "scale": 1.0, "seed": null, "mode": "fan_avg"}}, "bias_regularizer": null, "padding": "same", "kernel_size": [7, 1], "trainable": true, "kernel_constraint": null, "activation": "linear", "name": "conv2d_54", "use_bias": false, "kernel_regularizer": null, "bias_initializer": {"class_name": "Zeros", "config": {}}, "dilation_rate": [1, 1]}}, {"name": "conv2d_59", "inbound_nodes": [[["activation_58", 0, 0, {}]]], "class_name": "Conv2D", "config": {"data_format": "channels_last", "bias_constraint": null, "filters": 192, "activity_regularizer": null, "strides": [1, 1], "kernel_initializer": {"class_name": "VarianceScaling", "config": {"distribution": "uniform", "scale": 1.0, "seed": null, "mode": "fan_avg"}}, "bias_regularizer": null, "padding": "same", "kernel_size": [1, 7], "trainable": true, "kernel_constraint": null, "activation": "linear", "name": "conv2d_59", "use_bias": false, "kernel_regularizer": null, "bias_initializer": {"class_name": "Zeros", "config": {}}, "dilation_rate": [1, 1]}}, {"name": "conv2d_60", "inbound_nodes": [[["average_pooling2d_6", 0, 0, {}]]], "class_name": "Conv2D", "config": {"data_format": "channels_last", "bias_constraint": null, "filters": 192, "activity_regularizer": null, "strides": [1, 1], "kernel_initializer": {"class_name": "VarianceScaling", "config": {"distribution": "uniform", "scale": 1.0, "seed": null, "mode": "fan_avg"}}, "bias_regularizer": null, "padding": "same", "kernel_size": [1, 1], "trainable": true, "kernel_constraint": null, "activation": "linear", "name": "conv2d_60", "use_bias": false, "kernel_regularizer": null, "bias_initializer": {"class_name": "Zeros", "config": {}}, "dilation_rate": [1, 1]}}, {"name": "batch_normalization_51", "inbound_nodes": [[["conv2d_51", 0, 0, {}]]], "class_name": "BatchNormalization", "config": {"beta_regularizer": null, "gamma_initializer": {"class_name": "Ones", "config": {}}, "name": "batch_normalization_51", "gamma_constraint": null, "beta_constraint": null, "gamma_regularizer": null, "beta_initializer": {"class_name": "Zeros", "config": {}}, "momentum": 0.99, "trainable": true, "center": true, "scale": false, "axis": 3, "moving_mean_initializer": {"class_name": "Zeros", "config": {}}, "epsilon": 0.001, "moving_variance_initializer": {"class_name": "Ones", "config": {}}}}, {"name": "batch_normalization_54", "inbound_nodes": [[["conv2d_54", 0, 0, {}]]], "class_name": "BatchNormalization", "config": {"beta_regularizer": null, "gamma_initializer": {"class_name": "Ones", "config": {}}, "name": "batch_normalization_54", "gamma_constraint": null, "beta_constraint": null, "gamma_regularizer": null, "beta_initializer": {"class_name": "Zeros", "config": {}}, "momentum": 0.99, "trainable": true, "center": true, "scale": false, "axis": 3, "moving_mean_initializer": {"class_name": "Zeros", "config": {}}, "epsilon": 0.001, "moving_variance_initializer": {"class_name": "Ones", "config": {}}}}, {"name": "batch_normalization_59", "inbound_nodes": [[["conv2d_59", 0, 0, {}]]], "class_name": "BatchNormalization", "config": {"beta_regularizer": null, "gamma_initializer": {"class_name": "Ones", "config": {}}, "name": "batch_normalization_59", "gamma_constraint": null, "beta_constraint": null, "gamma_regularizer": null, "beta_initializer": {"class_name": "Zeros", "config": {}}, "momentum": 0.99, "trainable": true, "center": true, "scale": false, "axis": 3, "moving_mean_initializer": {"class_name": "Zeros", "config": {}}, "epsilon": 0.001, "moving_variance_initializer": {"class_name": "Ones", "config": {}}}}, {"name": "batch_normalization_60", "inbound_nodes": [[["conv2d_60", 0, 0, {}]]], "class_name": "BatchNormalization", "config": {"beta_regularizer": null, "gamma_initializer": {"class_name": "Ones", "config": {}}, "name": "batch_normalization_60", "gamma_constraint": null, "beta_constraint": null, "gamma_regularizer": null, "beta_initializer": {"class_name": "Zeros", "config": {}}, "momentum": 0.99, "trainable": true, "center": true, "scale": false, "axis": 3, "moving_mean_initializer": {"class_name": "Zeros", "config": {}}, "epsilon": 0.001, "moving_variance_initializer": {"class_name": "Ones", "config": {}}}}, {"name": "activation_51", "inbound_nodes": [[["batch_normalization_51", 0, 0, {}]]], "class_name": "Activation", "config": {"name": "activation_51", "activation": "relu", "trainable": true}}, {"name": "activation_54", "inbound_nodes": [[["batch_normalization_54", 0, 0, {}]]], "class_name": "Activation", "config": {"name": "activation_54", "activation": "relu", "trainable": true}}, {"name": "activation_59", "inbound_nodes": [[["batch_normalization_59", 0, 0, {}]]], "class_name": "Activation", "config": {"name": "activation_59", "activation": "relu", "trainable": true}}, {"name": "activation_60", "inbound_nodes": [[["batch_normalization_60", 0, 0, {}]]], "class_name": "Activation", "config": {"name": "activation_60", "activation": "relu", "trainable": true}}, {"name": "mixed6", "inbound_nodes": [[["activation_51", 0, 0, {}], ["activation_54", 0, 0, {}], ["activation_59", 0, 0, {}], ["activation_60", 0, 0, {}]]], "class_name": "Concatenate", "config": {"name": "mixed6", "trainable": true, "axis": 3}}, {"name": "conv2d_65", "inbound_nodes": [[["mixed6", 0, 0, {}]]], "class_name": "Conv2D", "config": {"data_format": "channels_last", "bias_constraint": null, "filters": 192, "activity_regularizer": null, "strides": [1, 1], "kernel_initializer": {"class_name": "VarianceScaling", "config": {"distribution": "uniform", "scale": 1.0, "seed": null, "mode": "fan_avg"}}, "bias_regularizer": null, "padding": "same", "kernel_size": [1, 1], "trainable": true, "kernel_constraint": null, "activation": "linear", "name": "conv2d_65", "use_bias": false, "kernel_regularizer": null, "bias_initializer": {"class_name": "Zeros", "config": {}}, "dilation_rate": [1, 1]}}, {"name": "batch_normalization_65", "inbound_nodes": [[["conv2d_65", 0, 0, {}]]], "class_name": "BatchNormalization", "config": {"beta_regularizer": null, "gamma_initializer": {"class_name": "Ones", "config": {}}, "name": "batch_normalization_65", "gamma_constraint": null, "beta_constraint": null, "gamma_regularizer": null, "beta_initializer": {"class_name": "Zeros", "config": {}}, "momentum": 0.99, "trainable": true, "center": true, "scale": false, "axis": 3, "moving_mean_initializer": {"class_name": "Zeros", "config": {}}, "epsilon": 0.001, "moving_variance_initializer": {"class_name": "Ones", "config": {}}}}, {"name": "activation_65", "inbound_nodes": [[["batch_normalization_65", 0, 0, {}]]], "class_name": "Activation", "config": {"name": "activation_65", "activation": "relu", "trainable": true}}, {"name": "conv2d_66", "inbound_nodes": [[["activation_65", 0, 0, {}]]], "class_name": "Conv2D", "config": {"data_format": "channels_last", "bias_constraint": null, "filters": 192, "activity_regularizer": null, "strides": [1, 1], "kernel_initializer": {"class_name": "VarianceScaling", "config": {"distribution": "uniform", "scale": 1.0, "seed": null, "mode": "fan_avg"}}, "bias_regularizer": null, "padding": "same", "kernel_size": [7, 1], "trainable": true, "kernel_constraint": null, "activation": "linear", "name": "conv2d_66", "use_bias": false, "kernel_regularizer": null, "bias_initializer": {"class_name": "Zeros", "config": {}}, "dilation_rate": [1, 1]}}, {"name": "batch_normalization_66", "inbound_nodes": [[["conv2d_66", 0, 0, {}]]], "class_name": "BatchNormalization", "config": {"beta_regularizer": null, "gamma_initializer": {"class_name": "Ones", "config": {}}, "name": "batch_normalization_66", "gamma_constraint": null, "beta_constraint": null, "gamma_regularizer": null, "beta_initializer": {"class_name": "Zeros", "config": {}}, "momentum": 0.99, "trainable": true, "center": true, "scale": false, "axis": 3, "moving_mean_initializer": {"class_name": "Zeros", "config": {}}, "epsilon": 0.001, "moving_variance_initializer": {"class_name": "Ones", "config": {}}}}, {"name": "activation_66", "inbound_nodes": [[["batch_normalization_66", 0, 0, {}]]], "class_name": "Activation", "config": {"name": "activation_66", "activation": "relu", "trainable": true}}, {"name": "conv2d_62", "inbound_nodes": [[["mixed6", 0, 0, {}]]], "class_name": "Conv2D", "config": {"data_format": "channels_last", "bias_constraint": null, "filters": 192, "activity_regularizer": null, "strides": [1, 1], "kernel_initializer": {"class_name": "VarianceScaling", "config": {"distribution": "uniform", "scale": 1.0, "seed": null, "mode": "fan_avg"}}, "bias_regularizer": null, "padding": "same", "kernel_size": [1, 1], "trainable": true, "kernel_constraint": null, "activation": "linear", "name": "conv2d_62", "use_bias": false, "kernel_regularizer": null, "bias_initializer": {"class_name": "Zeros", "config": {}}, "dilation_rate": [1, 1]}}, {"name": "conv2d_67", "inbound_nodes": [[["activation_66", 0, 0, {}]]], "class_name": "Conv2D", "config": {"data_format": "channels_last", "bias_constraint": null, "filters": 192, "activity_regularizer": null, "strides": [1, 1], "kernel_initializer": {"class_name": "VarianceScaling", "config": {"distribution": "uniform", "scale": 1.0, "seed": null, "mode": "fan_avg"}}, "bias_regularizer": null, "padding": "same", "kernel_size": [1, 7], "trainable": true, "kernel_constraint": null, "activation": "linear", "name": "conv2d_67", "use_bias": false, "kernel_regularizer": null, "bias_initializer": {"class_name": "Zeros", "config": {}}, "dilation_rate": [1, 1]}}, {"name": "batch_normalization_62", "inbound_nodes": [[["conv2d_62", 0, 0, {}]]], "class_name": "BatchNormalization", "config": {"beta_regularizer": null, "gamma_initializer": {"class_name": "Ones", "config": {}}, "name": "batch_normalization_62", "gamma_constraint": null, "beta_constraint": null, "gamma_regularizer": null, "beta_initializer": {"class_name": "Zeros", "config": {}}, "momentum": 0.99, "trainable": true, "center": true, "scale": false, "axis": 3, "moving_mean_initializer": {"class_name": "Zeros", "config": {}}, "epsilon": 0.001, "moving_variance_initializer": {"class_name": "Ones", "config": {}}}}, {"name": "batch_normalization_67", "inbound_nodes": [[["conv2d_67", 0, 0, {}]]], "class_name": "BatchNormalization", "config": {"beta_regularizer": null, "gamma_initializer": {"class_name": "Ones", "config": {}}, "name": "batch_normalization_67", "gamma_constraint": null, "beta_constraint": null, "gamma_regularizer": null, "beta_initializer": {"class_name": "Zeros", "config": {}}, "momentum": 0.99, "trainable": true, "center": true, "scale": false, "axis": 3, "moving_mean_initializer": {"class_name": "Zeros", "config": {}}, "epsilon": 0.001, "moving_variance_initializer": {"class_name": "Ones", "config": {}}}}, {"name": "activation_62", "inbound_nodes": [[["batch_normalization_62", 0, 0, {}]]], "class_name": "Activation", "config": {"name": "activation_62", "activation": "relu", "trainable": true}}, {"name": "activation_67", "inbound_nodes": [[["batch_normalization_67", 0, 0, {}]]], "class_name": "Activation", "config": {"name": "activation_67", "activation": "relu", "trainable": true}}, {"name": "conv2d_63", "inbound_nodes": [[["activation_62", 0, 0, {}]]], "class_name": "Conv2D", "config": {"data_format": "channels_last", "bias_constraint": null, "filters": 192, "activity_regularizer": null, "strides": [1, 1], "kernel_initializer": {"class_name": "VarianceScaling", "config": {"distribution": "uniform", "scale": 1.0, "seed": null, "mode": "fan_avg"}}, "bias_regularizer": null, "padding": "same", "kernel_size": [1, 7], "trainable": true, "kernel_constraint": null, "activation": "linear", "name": "conv2d_63", "use_bias": false, "kernel_regularizer": null, "bias_initializer": {"class_name": "Zeros", "config": {}}, "dilation_rate": [1, 1]}}, {"name": "conv2d_68", "inbound_nodes": [[["activation_67", 0, 0, {}]]], "class_name": "Conv2D", "config": {"data_format": "channels_last", "bias_constraint": null, "filters": 192, "activity_regularizer": null, "strides": [1, 1], "kernel_initializer": {"class_name": "VarianceScaling", "config": {"distribution": "uniform", "scale": 1.0, "seed": null, "mode": "fan_avg"}}, "bias_regularizer": null, "padding": "same", "kernel_size": [7, 1], "trainable": true, "kernel_constraint": null, "activation": "linear", "name": "conv2d_68", "use_bias": false, "kernel_regularizer": null, "bias_initializer": {"class_name": "Zeros", "config": {}}, "dilation_rate": [1, 1]}}, {"name": "batch_normalization_63", "inbound_nodes": [[["conv2d_63", 0, 0, {}]]], "class_name": "BatchNormalization", "config": {"beta_regularizer": null, "gamma_initializer": {"class_name": "Ones", "config": {}}, "name": "batch_normalization_63", "gamma_constraint": null, "beta_constraint": null, "gamma_regularizer": null, "beta_initializer": {"class_name": "Zeros", "config": {}}, "momentum": 0.99, "trainable": true, "center": true, "scale": false, "axis": 3, "moving_mean_initializer": {"class_name": "Zeros", "config": {}}, "epsilon": 0.001, "moving_variance_initializer": {"class_name": "Ones", "config": {}}}}, {"name": "batch_normalization_68", "inbound_nodes": [[["conv2d_68", 0, 0, {}]]], "class_name": "BatchNormalization", "config": {"beta_regularizer": null, "gamma_initializer": {"class_name": "Ones", "config": {}}, "name": "batch_normalization_68", "gamma_constraint": null, "beta_constraint": null, "gamma_regularizer": null, "beta_initializer": {"class_name": "Zeros", "config": {}}, "momentum": 0.99, "trainable": true, "center": true, "scale": false, "axis": 3, "moving_mean_initializer": {"class_name": "Zeros", "config": {}}, "epsilon": 0.001, "moving_variance_initializer": {"class_name": "Ones", "config": {}}}}, {"name": "activation_63", "inbound_nodes": [[["batch_normalization_63", 0, 0, {}]]], "class_name": "Activation", "config": {"name": "activation_63", "activation": "relu", "trainable": true}}, {"name": "activation_68", "inbound_nodes": [[["batch_normalization_68", 0, 0, {}]]], "class_name": "Activation", "config": {"name": "activation_68", "activation": "relu", "trainable": true}}, {"name": "average_pooling2d_7", "inbound_nodes": [[["mixed6", 0, 0, {}]]], "class_name": "AveragePooling2D", "config": {"name": "average_pooling2d_7", "pool_size": [3, 3], "strides": [1, 1], "trainable": true, "padding": "same", "data_format": "channels_last"}}, {"name": "conv2d_61", "inbound_nodes": [[["mixed6", 0, 0, {}]]], "class_name": "Conv2D", "config": {"data_format": "channels_last", "bias_constraint": null, "filters": 192, "activity_regularizer": null, "strides": [1, 1], "kernel_initializer": {"class_name": "VarianceScaling", "config": {"distribution": "uniform", "scale": 1.0, "seed": null, "mode": "fan_avg"}}, "bias_regularizer": null, "padding": "same", "kernel_size": [1, 1], "trainable": true, "kernel_constraint": null, "activation": "linear", "name": "conv2d_61", "use_bias": false, "kernel_regularizer": null, "bias_initializer": {"class_name": "Zeros", "config": {}}, "dilation_rate": [1, 1]}}, {"name": "conv2d_64", "inbound_nodes": [[["activation_63", 0, 0, {}]]], "class_name": "Conv2D", "config": {"data_format": "channels_last", "bias_constraint": null, "filters": 192, "activity_regularizer": null, "strides": [1, 1], "kernel_initializer": {"class_name": "VarianceScaling", "config": {"distribution": "uniform", "scale": 1.0, "seed": null, "mode": "fan_avg"}}, "bias_regularizer": null, "padding": "same", "kernel_size": [7, 1], "trainable": true, "kernel_constraint": null, "activation": "linear", "name": "conv2d_64", "use_bias": false, "kernel_regularizer": null, "bias_initializer": {"class_name": "Zeros", "config": {}}, "dilation_rate": [1, 1]}}, {"name": "conv2d_69", "inbound_nodes": [[["activation_68", 0, 0, {}]]], "class_name": "Conv2D", "config": {"data_format": "channels_last", "bias_constraint": null, "filters": 192, "activity_regularizer": null, "strides": [1, 1], "kernel_initializer": {"class_name": "VarianceScaling", "config": {"distribution": "uniform", "scale": 1.0, "seed": null, "mode": "fan_avg"}}, "bias_regularizer": null, "padding": "same", "kernel_size": [1, 7], "trainable": true, "kernel_constraint": null, "activation": "linear", "name": "conv2d_69", "use_bias": false, "kernel_regularizer": null, "bias_initializer": {"class_name": "Zeros", "config": {}}, "dilation_rate": [1, 1]}}, {"name": "conv2d_70", "inbound_nodes": [[["average_pooling2d_7", 0, 0, {}]]], "class_name": "Conv2D", "config": {"data_format": "channels_last", "bias_constraint": null, "filters": 192, "activity_regularizer": null, "strides": [1, 1], "kernel_initializer": {"class_name": "VarianceScaling", "config": {"distribution": "uniform", "scale": 1.0, "seed": null, "mode": "fan_avg"}}, "bias_regularizer": null, "padding": "same", "kernel_size": [1, 1], "trainable": true, "kernel_constraint": null, "activation": "linear", "name": "conv2d_70", "use_bias": false, "kernel_regularizer": null, "bias_initializer": {"class_name": "Zeros", "config": {}}, "dilation_rate": [1, 1]}}, {"name": "batch_normalization_61", "inbound_nodes": [[["conv2d_61", 0, 0, {}]]], "class_name": "BatchNormalization", "config": {"beta_regularizer": null, "gamma_initializer": {"class_name": "Ones", "config": {}}, "name": "batch_normalization_61", "gamma_constraint": null, "beta_constraint": null, "gamma_regularizer": null, "beta_initializer": {"class_name": "Zeros", "config": {}}, "momentum": 0.99, "trainable": true, "center": true, "scale": false, "axis": 3, "moving_mean_initializer": {"class_name": "Zeros", "config": {}}, "epsilon": 0.001, "moving_variance_initializer": {"class_name": "Ones", "config": {}}}}, {"name": "batch_normalization_64", "inbound_nodes": [[["conv2d_64", 0, 0, {}]]], "class_name": "BatchNormalization", "config": {"beta_regularizer": null, "gamma_initializer": {"class_name": "Ones", "config": {}}, "name": "batch_normalization_64", "gamma_constraint": null, "beta_constraint": null, "gamma_regularizer": null, "beta_initializer": {"class_name": "Zeros", "config": {}}, "momentum": 0.99, "trainable": true, "center": true, "scale": false, "axis": 3, "moving_mean_initializer": {"class_name": "Zeros", "config": {}}, "epsilon": 0.001, "moving_variance_initializer": {"class_name": "Ones", "config": {}}}}, {"name": "batch_normalization_69", "inbound_nodes": [[["conv2d_69", 0, 0, {}]]], "class_name": "BatchNormalization", "config": {"beta_regularizer": null, "gamma_initializer": {"class_name": "Ones", "config": {}}, "name": "batch_normalization_69", "gamma_constraint": null, "beta_constraint": null, "gamma_regularizer": null, "beta_initializer": {"class_name": "Zeros", "config": {}}, "momentum": 0.99, "trainable": true, "center": true, "scale": false, "axis": 3, "moving_mean_initializer": {"class_name": "Zeros", "config": {}}, "epsilon": 0.001, "moving_variance_initializer": {"class_name": "Ones", "config": {}}}}, {"name": "batch_normalization_70", "inbound_nodes": [[["conv2d_70", 0, 0, {}]]], "class_name": "BatchNormalization", "config": {"beta_regularizer": null, "gamma_initializer": {"class_name": "Ones", "config": {}}, "name": "batch_normalization_70", "gamma_constraint": null, "beta_constraint": null, "gamma_regularizer": null, "beta_initializer": {"class_name": "Zeros", "config": {}}, "momentum": 0.99, "trainable": true, "center": true, "scale": false, "axis": 3, "moving_mean_initializer": {"class_name": "Zeros", "config": {}}, "epsilon": 0.001, "moving_variance_initializer": {"class_name": "Ones", "config": {}}}}, {"name": "activation_61", "inbound_nodes": [[["batch_normalization_61", 0, 0, {}]]], "class_name": "Activation", "config": {"name": "activation_61", "activation": "relu", "trainable": true}}, {"name": "activation_64", "inbound_nodes": [[["batch_normalization_64", 0, 0, {}]]], "class_name": "Activation", "config": {"name": "activation_64", "activation": "relu", "trainable": true}}, {"name": "activation_69", "inbound_nodes": [[["batch_normalization_69", 0, 0, {}]]], "class_name": "Activation", "config": {"name": "activation_69", "activation": "relu", "trainable": true}}, {"name": "activation_70", "inbound_nodes": [[["batch_normalization_70", 0, 0, {}]]], "class_name": "Activation", "config": {"name": "activation_70", "activation": "relu", "trainable": true}}, {"name": "mixed7", "inbound_nodes": [[["activation_61", 0, 0, {}], ["activation_64", 0, 0, {}], ["activation_69", 0, 0, {}], ["activation_70", 0, 0, {}]]], "class_name": "Concatenate", "config": {"name": "mixed7", "trainable": true, "axis": 3}}, {"name": "conv2d_73", "inbound_nodes": [[["mixed7", 0, 0, {}]]], "class_name": "Conv2D", "config": {"data_format": "channels_last", "bias_constraint": null, "filters": 192, "activity_regularizer": null, "strides": [1, 1], "kernel_initializer": {"class_name": "VarianceScaling", "config": {"distribution": "uniform", "scale": 1.0, "seed": null, "mode": "fan_avg"}}, "bias_regularizer": null, "padding": "same", "kernel_size": [1, 1], "trainable": true, "kernel_constraint": null, "activation": "linear", "name": "conv2d_73", "use_bias": false, "kernel_regularizer": null, "bias_initializer": {"class_name": "Zeros", "config": {}}, "dilation_rate": [1, 1]}}, {"name": "batch_normalization_73", "inbound_nodes": [[["conv2d_73", 0, 0, {}]]], "class_name": "BatchNormalization", "config": {"beta_regularizer": null, "gamma_initializer": {"class_name": "Ones", "config": {}}, "name": "batch_normalization_73", "gamma_constraint": null, "beta_constraint": null, "gamma_regularizer": null, "beta_initializer": {"class_name": "Zeros", "config": {}}, "momentum": 0.99, "trainable": true, "center": true, "scale": false, "axis": 3, "moving_mean_initializer": {"class_name": "Zeros", "config": {}}, "epsilon": 0.001, "moving_variance_initializer": {"class_name": "Ones", "config": {}}}}, {"name": "activation_73", "inbound_nodes": [[["batch_normalization_73", 0, 0, {}]]], "class_name": "Activation", "config": {"name": "activation_73", "activation": "relu", "trainable": true}}, {"name": "conv2d_74", "inbound_nodes": [[["activation_73", 0, 0, {}]]], "class_name": "Conv2D", "config": {"data_format": "channels_last", "bias_constraint": null, "filters": 192, "activity_regularizer": null, "strides": [1, 1], "kernel_initializer": {"class_name": "VarianceScaling", "config": {"distribution": "uniform", "scale": 1.0, "seed": null, "mode": "fan_avg"}}, "bias_regularizer": null, "padding": "same", "kernel_size": [1, 7], "trainable": true, "kernel_constraint": null, "activation": "linear", "name": "conv2d_74", "use_bias": false, "kernel_regularizer": null, "bias_initializer": {"class_name": "Zeros", "config": {}}, "dilation_rate": [1, 1]}}, {"name": "batch_normalization_74", "inbound_nodes": [[["conv2d_74", 0, 0, {}]]], "class_name": "BatchNormalization", "config": {"beta_regularizer": null, "gamma_initializer": {"class_name": "Ones", "config": {}}, "name": "batch_normalization_74", "gamma_constraint": null, "beta_constraint": null, "gamma_regularizer": null, "beta_initializer": {"class_name": "Zeros", "config": {}}, "momentum": 0.99, "trainable": true, "center": true, "scale": false, "axis": 3, "moving_mean_initializer": {"class_name": "Zeros", "config": {}}, "epsilon": 0.001, "moving_variance_initializer": {"class_name": "Ones", "config": {}}}}, {"name": "activation_74", "inbound_nodes": [[["batch_normalization_74", 0, 0, {}]]], "class_name": "Activation", "config": {"name": "activation_74", "activation": "relu", "trainable": true}}, {"name": "conv2d_71", "inbound_nodes": [[["mixed7", 0, 0, {}]]], "class_name": "Conv2D", "config": {"data_format": "channels_last", "bias_constraint": null, "filters": 192, "activity_regularizer": null, "strides": [1, 1], "kernel_initializer": {"class_name": "VarianceScaling", "config": {"distribution": "uniform", "scale": 1.0, "seed": null, "mode": "fan_avg"}}, "bias_regularizer": null, "padding": "same", "kernel_size": [1, 1], "trainable": true, "kernel_constraint": null, "activation": "linear", "name": "conv2d_71", "use_bias": false, "kernel_regularizer": null, "bias_initializer": {"class_name": "Zeros", "config": {}}, "dilation_rate": [1, 1]}}, {"name": "conv2d_75", "inbound_nodes": [[["activation_74", 0, 0, {}]]], "class_name": "Conv2D", "config": {"data_format": "channels_last", "bias_constraint": null, "filters": 192, "activity_regularizer": null, "strides": [1, 1], "kernel_initializer": {"class_name": "VarianceScaling", "config": {"distribution": "uniform", "scale": 1.0, "seed": null, "mode": "fan_avg"}}, "bias_regularizer": null, "padding": "same", "kernel_size": [7, 1], "trainable": true, "kernel_constraint": null, "activation": "linear", "name": "conv2d_75", "use_bias": false, "kernel_regularizer": null, "bias_initializer": {"class_name": "Zeros", "config": {}}, "dilation_rate": [1, 1]}}, {"name": "batch_normalization_71", "inbound_nodes": [[["conv2d_71", 0, 0, {}]]], "class_name": "BatchNormalization", "config": {"beta_regularizer": null, "gamma_initializer": {"class_name": "Ones", "config": {}}, "name": "batch_normalization_71", "gamma_constraint": null, "beta_constraint": null, "gamma_regularizer": null, "beta_initializer": {"class_name": "Zeros", "config": {}}, "momentum": 0.99, "trainable": true, "center": true, "scale": false, "axis": 3, "moving_mean_initializer": {"class_name": "Zeros", "config": {}}, "epsilon": 0.001, "moving_variance_initializer": {"class_name": "Ones", "config": {}}}}, {"name": "batch_normalization_75", "inbound_nodes": [[["conv2d_75", 0, 0, {}]]], "class_name": "BatchNormalization", "config": {"beta_regularizer": null, "gamma_initializer": {"class_name": "Ones", "config": {}}, "name": "batch_normalization_75", "gamma_constraint": null, "beta_constraint": null, "gamma_regularizer": null, "beta_initializer": {"class_name": "Zeros", "config": {}}, "momentum": 0.99, "trainable": true, "center": true, "scale": false, "axis": 3, "moving_mean_initializer": {"class_name": "Zeros", "config": {}}, "epsilon": 0.001, "moving_variance_initializer": {"class_name": "Ones", "config": {}}}}, {"name": "activation_71", "inbound_nodes": [[["batch_normalization_71", 0, 0, {}]]], "class_name": "Activation", "config": {"name": "activation_71", "activation": "relu", "trainable": true}}, {"name": "activation_75", "inbound_nodes": [[["batch_normalization_75", 0, 0, {}]]], "class_name": "Activation", "config": {"name": "activation_75", "activation": "relu", "trainable": true}}, {"name": "conv2d_72", "inbound_nodes": [[["activation_71", 0, 0, {}]]], "class_name": "Conv2D", "config": {"data_format": "channels_last", "bias_constraint": null, "filters": 320, "activity_regularizer": null, "strides": [2, 2], "kernel_initializer": {"class_name": "VarianceScaling", "config": {"distribution": "uniform", "scale": 1.0, "seed": null, "mode": "fan_avg"}}, "bias_regularizer": null, "padding": "valid", "kernel_size": [3, 3], "trainable": true, "kernel_constraint": null, "activation": "linear", "name": "conv2d_72", "use_bias": false, "kernel_regularizer": null, "bias_initializer": {"class_name": "Zeros", "config": {}}, "dilation_rate": [1, 1]}}, {"name": "conv2d_76", "inbound_nodes": [[["activation_75", 0, 0, {}]]], "class_name": "Conv2D", "config": {"data_format": "channels_last", "bias_constraint": null, "filters": 192, "activity_regularizer": null, "strides": [2, 2], "kernel_initializer": {"class_name": "VarianceScaling", "config": {"distribution": "uniform", "scale": 1.0, "seed": null, "mode": "fan_avg"}}, "bias_regularizer": null, "padding": "valid", "kernel_size": [3, 3], "trainable": true, "kernel_constraint": null, "activation": "linear", "name": "conv2d_76", "use_bias": false, "kernel_regularizer": null, "bias_initializer": {"class_name": "Zeros", "config": {}}, "dilation_rate": [1, 1]}}, {"name": "batch_normalization_72", "inbound_nodes": [[["conv2d_72", 0, 0, {}]]], "class_name": "BatchNormalization", "config": {"beta_regularizer": null, "gamma_initializer": {"class_name": "Ones", "config": {}}, "name": "batch_normalization_72", "gamma_constraint": null, "beta_constraint": null, "gamma_regularizer": null, "beta_initializer": {"class_name": "Zeros", "config": {}}, "momentum": 0.99, "trainable": true, "center": true, "scale": false, "axis": 3, "moving_mean_initializer": {"class_name": "Zeros", "config": {}}, "epsilon": 0.001, "moving_variance_initializer": {"class_name": "Ones", "config": {}}}}, {"name": "batch_normalization_76", "inbound_nodes": [[["conv2d_76", 0, 0, {}]]], "class_name": "BatchNormalization", "config": {"beta_regularizer": null, "gamma_initializer": {"class_name": "Ones", "config": {}}, "name": "batch_normalization_76", "gamma_constraint": null, "beta_constraint": null, "gamma_regularizer": null, "beta_initializer": {"class_name": "Zeros", "config": {}}, "momentum": 0.99, "trainable": true, "center": true, "scale": false, "axis": 3, "moving_mean_initializer": {"class_name": "Zeros", "config": {}}, "epsilon": 0.001, "moving_variance_initializer": {"class_name": "Ones", "config": {}}}}, {"name": "activation_72", "inbound_nodes": [[["batch_normalization_72", 0, 0, {}]]], "class_name": "Activation", "config": {"name": "activation_72", "activation": "relu", "trainable": true}}, {"name": "activation_76", "inbound_nodes": [[["batch_normalization_76", 0, 0, {}]]], "class_name": "Activation", "config": {"name": "activation_76", "activation": "relu", "trainable": true}}, {"name": "max_pooling2d_4", "inbound_nodes": [[["mixed7", 0, 0, {}]]], "class_name": "MaxPooling2D", "config": {"name": "max_pooling2d_4", "pool_size": [3, 3], "strides": [2, 2], "trainable": true, "padding": "valid", "data_format": "channels_last"}}, {"name": "mixed8", "inbound_nodes": [[["activation_72", 0, 0, {}], ["activation_76", 0, 0, {}], ["max_pooling2d_4", 0, 0, {}]]], "class_name": "Concatenate", "config": {"name": "mixed8", "trainable": true, "axis": 3}}, {"name": "conv2d_81", "inbound_nodes": [[["mixed8", 0, 0, {}]]], "class_name": "Conv2D", "config": {"data_format": "channels_last", "bias_constraint": null, "filters": 448, "activity_regularizer": null, "strides": [1, 1], "kernel_initializer": {"class_name": "VarianceScaling", "config": {"distribution": "uniform", "scale": 1.0, "seed": null, "mode": "fan_avg"}}, "bias_regularizer": null, "padding": "same", "kernel_size": [1, 1], "trainable": true, "kernel_constraint": null, "activation": "linear", "name": "conv2d_81", "use_bias": false, "kernel_regularizer": null, "bias_initializer": {"class_name": "Zeros", "config": {}}, "dilation_rate": [1, 1]}}, {"name": "batch_normalization_81", "inbound_nodes": [[["conv2d_81", 0, 0, {}]]], "class_name": "BatchNormalization", "config": {"beta_regularizer": null, "gamma_initializer": {"class_name": "Ones", "config": {}}, "name": "batch_normalization_81", "gamma_constraint": null, "beta_constraint": null, "gamma_regularizer": null, "beta_initializer": {"class_name": "Zeros", "config": {}}, "momentum": 0.99, "trainable": true, "center": true, "scale": false, "axis": 3, "moving_mean_initializer": {"class_name": "Zeros", "config": {}}, "epsilon": 0.001, "moving_variance_initializer": {"class_name": "Ones", "config": {}}}}, {"name": "activation_81", "inbound_nodes": [[["batch_normalization_81", 0, 0, {}]]], "class_name": "Activation", "config": {"name": "activation_81", "activation": "relu", "trainable": true}}, {"name": "conv2d_78", "inbound_nodes": [[["mixed8", 0, 0, {}]]], "class_name": "Conv2D", "config": {"data_format": "channels_last", "bias_constraint": null, "filters": 384, "activity_regularizer": null, "strides": [1, 1], "kernel_initializer": {"class_name": "VarianceScaling", "config": {"distribution": "uniform", "scale": 1.0, "seed": null, "mode": "fan_avg"}}, "bias_regularizer": null, "padding": "same", "kernel_size": [1, 1], "trainable": true, "kernel_constraint": null, "activation": "linear", "name": "conv2d_78", "use_bias": false, "kernel_regularizer": null, "bias_initializer": {"class_name": "Zeros", "config": {}}, "dilation_rate": [1, 1]}}, {"name": "conv2d_82", "inbound_nodes": [[["activation_81", 0, 0, {}]]], "class_name": "Conv2D", "config": {"data_format": "channels_last", "bias_constraint": null, "filters": 384, "activity_regularizer": null, "strides": [1, 1], "kernel_initializer": {"class_name": "VarianceScaling", "config": {"distribution": "uniform", "scale": 1.0, "seed": null, "mode": "fan_avg"}}, "bias_regularizer": null, "padding": "same", "kernel_size": [3, 3], "trainable": true, "kernel_constraint": null, "activation": "linear", "name": "conv2d_82", "use_bias": false, "kernel_regularizer": null, "bias_initializer": {"class_name": "Zeros", "config": {}}, "dilation_rate": [1, 1]}}, {"name": "batch_normalization_78", "inbound_nodes": [[["conv2d_78", 0, 0, {}]]], "class_name": "BatchNormalization", "config": {"beta_regularizer": null, "gamma_initializer": {"class_name": "Ones", "config": {}}, "name": "batch_normalization_78", "gamma_constraint": null, "beta_constraint": null, "gamma_regularizer": null, "beta_initializer": {"class_name": "Zeros", "config": {}}, "momentum": 0.99, "trainable": true, "center": true, "scale": false, "axis": 3, "moving_mean_initializer": {"class_name": "Zeros", "config": {}}, "epsilon": 0.001, "moving_variance_initializer": {"class_name": "Ones", "config": {}}}}, {"name": "batch_normalization_82", "inbound_nodes": [[["conv2d_82", 0, 0, {}]]], "class_name": "BatchNormalization", "config": {"beta_regularizer": null, "gamma_initializer": {"class_name": "Ones", "config": {}}, "name": "batch_normalization_82", "gamma_constraint": null, "beta_constraint": null, "gamma_regularizer": null, "beta_initializer": {"class_name": "Zeros", "config": {}}, "momentum": 0.99, "trainable": true, "center": true, "scale": false, "axis": 3, "moving_mean_initializer": {"class_name": "Zeros", "config": {}}, "epsilon": 0.001, "moving_variance_initializer": {"class_name": "Ones", "config": {}}}}, {"name": "activation_78", "inbound_nodes": [[["batch_normalization_78", 0, 0, {}]]], "class_name": "Activation", "config": {"name": "activation_78", "activation": "relu", "trainable": true}}, {"name": "activation_82", "inbound_nodes": [[["batch_normalization_82", 0, 0, {}]]], "class_name": "Activation", "config": {"name": "activation_82", "activation": "relu", "trainable": true}}, {"name": "conv2d_79", "inbound_nodes": [[["activation_78", 0, 0, {}]]], "class_name": "Conv2D", "config": {"data_format": "channels_last", "bias_constraint": null, "filters": 384, "activity_regularizer": null, "strides": [1, 1], "kernel_initializer": {"class_name": "VarianceScaling", "config": {"distribution": "uniform", "scale": 1.0, "seed": null, "mode": "fan_avg"}}, "bias_regularizer": null, "padding": "same", "kernel_size": [1, 3], "trainable": true, "kernel_constraint": null, "activation": "linear", "name": "conv2d_79", "use_bias": false, "kernel_regularizer": null, "bias_initializer": {"class_name": "Zeros", "config": {}}, "dilation_rate": [1, 1]}}, {"name": "conv2d_80", "inbound_nodes": [[["activation_78", 0, 0, {}]]], "class_name": "Conv2D", "config": {"data_format": "channels_last", "bias_constraint": null, "filters": 384, "activity_regularizer": null, "strides": [1, 1], "kernel_initializer": {"class_name": "VarianceScaling", "config": {"distribution": "uniform", "scale": 1.0, "seed": null, "mode": "fan_avg"}}, "bias_regularizer": null, "padding": "same", "kernel_size": [3, 1], "trainable": true, "kernel_constraint": null, "activation": "linear", "name": "conv2d_80", "use_bias": false, "kernel_regularizer": null, "bias_initializer": {"class_name": "Zeros", "config": {}}, "dilation_rate": [1, 1]}}, {"name": "conv2d_83", "inbound_nodes": [[["activation_82", 0, 0, {}]]], "class_name": "Conv2D", "config": {"data_format": "channels_last", "bias_constraint": null, "filters": 384, "activity_regularizer": null, "strides": [1, 1], "kernel_initializer": {"class_name": "VarianceScaling", "config": {"distribution": "uniform", "scale": 1.0, "seed": null, "mode": "fan_avg"}}, "bias_regularizer": null, "padding": "same", "kernel_size": [1, 3], "trainable": true, "kernel_constraint": null, "activation": "linear", "name": "conv2d_83", "use_bias": false, "kernel_regularizer": null, "bias_initializer": {"class_name": "Zeros", "config": {}}, "dilation_rate": [1, 1]}}, {"name": "conv2d_84", "inbound_nodes": [[["activation_82", 0, 0, {}]]], "class_name": "Conv2D", "config": {"data_format": "channels_last", "bias_constraint": null, "filters": 384, "activity_regularizer": null, "strides": [1, 1], "kernel_initializer": {"class_name": "VarianceScaling", "config": {"distribution": "uniform", "scale": 1.0, "seed": null, "mode": "fan_avg"}}, "bias_regularizer": null, "padding": "same", "kernel_size": [3, 1], "trainable": true, "kernel_constraint": null, "activation": "linear", "name": "conv2d_84", "use_bias": false, "kernel_regularizer": null, "bias_initializer": {"class_name": "Zeros", "config": {}}, "dilation_rate": [1, 1]}}, {"name": "average_pooling2d_8", "inbound_nodes": [[["mixed8", 0, 0, {}]]], "class_name": "AveragePooling2D", "config": {"name": "average_pooling2d_8", "pool_size": [3, 3], "strides": [1, 1], "trainable": true, "padding": "same", "data_format": "channels_last"}}, {"name": "conv2d_77", "inbound_nodes": [[["mixed8", 0, 0, {}]]], "class_name": "Conv2D", "config": {"data_format": "channels_last", "bias_constraint": null, "filters": 320, "activity_regularizer": null, "strides": [1, 1], "kernel_initializer": {"class_name": "VarianceScaling", "config": {"distribution": "uniform", "scale": 1.0, "seed": null, "mode": "fan_avg"}}, "bias_regularizer": null, "padding": "same", "kernel_size": [1, 1], "trainable": true, "kernel_constraint": null, "activation": "linear", "name": "conv2d_77", "use_bias": false, "kernel_regularizer": null, "bias_initializer": {"class_name": "Zeros", "config": {}}, "dilation_rate": [1, 1]}}, {"name": "batch_normalization_79", "inbound_nodes": [[["conv2d_79", 0, 0, {}]]], "class_name": "BatchNormalization", "config": {"beta_regularizer": null, "gamma_initializer": {"class_name": "Ones", "config": {}}, "name": "batch_normalization_79", "gamma_constraint": null, "beta_constraint": null, "gamma_regularizer": null, "beta_initializer": {"class_name": "Zeros", "config": {}}, "momentum": 0.99, "trainable": true, "center": true, "scale": false, "axis": 3, "moving_mean_initializer": {"class_name": "Zeros", "config": {}}, "epsilon": 0.001, "moving_variance_initializer": {"class_name": "Ones", "config": {}}}}, {"name": "batch_normalization_80", "inbound_nodes": [[["conv2d_80", 0, 0, {}]]], "class_name": "BatchNormalization", "config": {"beta_regularizer": null, "gamma_initializer": {"class_name": "Ones", "config": {}}, "name": "batch_normalization_80", "gamma_constraint": null, "beta_constraint": null, "gamma_regularizer": null, "beta_initializer": {"class_name": "Zeros", "config": {}}, "momentum": 0.99, "trainable": true, "center": true, "scale": false, "axis": 3, "moving_mean_initializer": {"class_name": "Zeros", "config": {}}, "epsilon": 0.001, "moving_variance_initializer": {"class_name": "Ones", "config": {}}}}, {"name": "batch_normalization_83", "inbound_nodes": [[["conv2d_83", 0, 0, {}]]], "class_name": "BatchNormalization", "config": {"beta_regularizer": null, "gamma_initializer": {"class_name": "Ones", "config": {}}, "name": "batch_normalization_83", "gamma_constraint": null, "beta_constraint": null, "gamma_regularizer": null, "beta_initializer": {"class_name": "Zeros", "config": {}}, "momentum": 0.99, "trainable": true, "center": true, "scale": false, "axis": 3, "moving_mean_initializer": {"class_name": "Zeros", "config": {}}, "epsilon": 0.001, "moving_variance_initializer": {"class_name": "Ones", "config": {}}}}, {"name": "batch_normalization_84", "inbound_nodes": [[["conv2d_84", 0, 0, {}]]], "class_name": "BatchNormalization", "config": {"beta_regularizer": null, "gamma_initializer": {"class_name": "Ones", "config": {}}, "name": "batch_normalization_84", "gamma_constraint": null, "beta_constraint": null, "gamma_regularizer": null, "beta_initializer": {"class_name": "Zeros", "config": {}}, "momentum": 0.99, "trainable": true, "center": true, "scale": false, "axis": 3, "moving_mean_initializer": {"class_name": "Zeros", "config": {}}, "epsilon": 0.001, "moving_variance_initializer": {"class_name": "Ones", "config": {}}}}, {"name": "conv2d_85", "inbound_nodes": [[["average_pooling2d_8", 0, 0, {}]]], "class_name": "Conv2D", "config": {"data_format": "channels_last", "bias_constraint": null, "filters": 192, "activity_regularizer": null, "strides": [1, 1], "kernel_initializer": {"class_name": "VarianceScaling", "config": {"distribution": "uniform", "scale": 1.0, "seed": null, "mode": "fan_avg"}}, "bias_regularizer": null, "padding": "same", "kernel_size": [1, 1], "trainable": true, "kernel_constraint": null, "activation": "linear", "name": "conv2d_85", "use_bias": false, "kernel_regularizer": null, "bias_initializer": {"class_name": "Zeros", "config": {}}, "dilation_rate": [1, 1]}}, {"name": "batch_normalization_77", "inbound_nodes": [[["conv2d_77", 0, 0, {}]]], "class_name": "BatchNormalization", "config": {"beta_regularizer": null, "gamma_initializer": {"class_name": "Ones", "config": {}}, "name": "batch_normalization_77", "gamma_constraint": null, "beta_constraint": null, "gamma_regularizer": null, "beta_initializer": {"class_name": "Zeros", "config": {}}, "momentum": 0.99, "trainable": true, "center": true, "scale": false, "axis": 3, "moving_mean_initializer": {"class_name": "Zeros", "config": {}}, "epsilon": 0.001, "moving_variance_initializer": {"class_name": "Ones", "config": {}}}}, {"name": "activation_79", "inbound_nodes": [[["batch_normalization_79", 0, 0, {}]]], "class_name": "Activation", "config": {"name": "activation_79", "activation": "relu", "trainable": true}}, {"name": "activation_80", "inbound_nodes": [[["batch_normalization_80", 0, 0, {}]]], "class_name": "Activation", "config": {"name": "activation_80", "activation": "relu", "trainable": true}}, {"name": "activation_83", "inbound_nodes": [[["batch_normalization_83", 0, 0, {}]]], "class_name": "Activation", "config": {"name": "activation_83", "activation": "relu", "trainable": true}}, {"name": "activation_84", "inbound_nodes": [[["batch_normalization_84", 0, 0, {}]]], "class_name": "Activation", "config": {"name": "activation_84", "activation": "relu", "trainable": true}}, {"name": "batch_normalization_85", "inbound_nodes": [[["conv2d_85", 0, 0, {}]]], "class_name": "BatchNormalization", "config": {"beta_regularizer": null, "gamma_initializer": {"class_name": "Ones", "config": {}}, "name": "batch_normalization_85", "gamma_constraint": null, "beta_constraint": null, "gamma_regularizer": null, "beta_initializer": {"class_name": "Zeros", "config": {}}, "momentum": 0.99, "trainable": true, "center": true, "scale": false, "axis": 3, "moving_mean_initializer": {"class_name": "Zeros", "config": {}}, "epsilon": 0.001, "moving_variance_initializer": {"class_name": "Ones", "config": {}}}}, {"name": "activation_77", "inbound_nodes": [[["batch_normalization_77", 0, 0, {}]]], "class_name": "Activation", "config": {"name": "activation_77", "activation": "relu", "trainable": true}}, {"name": "mixed9_0", "inbound_nodes": [[["activation_79", 0, 0, {}], ["activation_80", 0, 0, {}]]], "class_name": "Concatenate", "config": {"name": "mixed9_0", "trainable": true, "axis": 3}}, {"name": "concatenate_1", "inbound_nodes": [[["activation_83", 0, 0, {}], ["activation_84", 0, 0, {}]]], "class_name": "Concatenate", "config": {"name": "concatenate_1", "trainable": true, "axis": 3}}, {"name": "activation_85", "inbound_nodes": [[["batch_normalization_85", 0, 0, {}]]], "class_name": "Activation", "config": {"name": "activation_85", "activation": "relu", "trainable": true}}, {"name": "mixed9", "inbound_nodes": [[["activation_77", 0, 0, {}], ["mixed9_0", 0, 0, {}], ["concatenate_1", 0, 0, {}], ["activation_85", 0, 0, {}]]], "class_name": "Concatenate", "config": {"name": "mixed9", "trainable": true, "axis": 3}}, {"name": "conv2d_90", "inbound_nodes": [[["mixed9", 0, 0, {}]]], "class_name": "Conv2D", "config": {"data_format": "channels_last", "bias_constraint": null, "filters": 448, "activity_regularizer": null, "strides": [1, 1], "kernel_initializer": {"class_name": "VarianceScaling", "config": {"distribution": "uniform", "scale": 1.0, "seed": null, "mode": "fan_avg"}}, "bias_regularizer": null, "padding": "same", "kernel_size": [1, 1], "trainable": true, "kernel_constraint": null, "activation": "linear", "name": "conv2d_90", "use_bias": false, "kernel_regularizer": null, "bias_initializer": {"class_name": "Zeros", "config": {}}, "dilation_rate": [1, 1]}}, {"name": "batch_normalization_90", "inbound_nodes": [[["conv2d_90", 0, 0, {}]]], "class_name": "BatchNormalization", "config": {"beta_regularizer": null, "gamma_initializer": {"class_name": "Ones", "config": {}}, "name": "batch_normalization_90", "gamma_constraint": null, "beta_constraint": null, "gamma_regularizer": null, "beta_initializer": {"class_name": "Zeros", "config": {}}, "momentum": 0.99, "trainable": true, "center": true, "scale": false, "axis": 3, "moving_mean_initializer": {"class_name": "Zeros", "config": {}}, "epsilon": 0.001, "moving_variance_initializer": {"class_name": "Ones", "config": {}}}}, {"name": "activation_90", "inbound_nodes": [[["batch_normalization_90", 0, 0, {}]]], "class_name": "Activation", "config": {"name": "activation_90", "activation": "relu", "trainable": true}}, {"name": "conv2d_87", "inbound_nodes": [[["mixed9", 0, 0, {}]]], "class_name": "Conv2D", "config": {"data_format": "channels_last", "bias_constraint": null, "filters": 384, "activity_regularizer": null, "strides": [1, 1], "kernel_initializer": {"class_name": "VarianceScaling", "config": {"distribution": "uniform", "scale": 1.0, "seed": null, "mode": "fan_avg"}}, "bias_regularizer": null, "padding": "same", "kernel_size": [1, 1], "trainable": true, "kernel_constraint": null, "activation": "linear", "name": "conv2d_87", "use_bias": false, "kernel_regularizer": null, "bias_initializer": {"class_name": "Zeros", "config": {}}, "dilation_rate": [1, 1]}}, {"name": "conv2d_91", "inbound_nodes": [[["activation_90", 0, 0, {}]]], "class_name": "Conv2D", "config": {"data_format": "channels_last", "bias_constraint": null, "filters": 384, "activity_regularizer": null, "strides": [1, 1], "kernel_initializer": {"class_name": "VarianceScaling", "config": {"distribution": "uniform", "scale": 1.0, "seed": null, "mode": "fan_avg"}}, "bias_regularizer": null, "padding": "same", "kernel_size": [3, 3], "trainable": true, "kernel_constraint": null, "activation": "linear", "name": "conv2d_91", "use_bias": false, "kernel_regularizer": null, "bias_initializer": {"class_name": "Zeros", "config": {}}, "dilation_rate": [1, 1]}}, {"name": "batch_normalization_87", "inbound_nodes": [[["conv2d_87", 0, 0, {}]]], "class_name": "BatchNormalization", "config": {"beta_regularizer": null, "gamma_initializer": {"class_name": "Ones", "config": {}}, "name": "batch_normalization_87", "gamma_constraint": null, "beta_constraint": null, "gamma_regularizer": null, "beta_initializer": {"class_name": "Zeros", "config": {}}, "momentum": 0.99, "trainable": true, "center": true, "scale": false, "axis": 3, "moving_mean_initializer": {"class_name": "Zeros", "config": {}}, "epsilon": 0.001, "moving_variance_initializer": {"class_name": "Ones", "config": {}}}}, {"name": "batch_normalization_91", "inbound_nodes": [[["conv2d_91", 0, 0, {}]]], "class_name": "BatchNormalization", "config": {"beta_regularizer": null, "gamma_initializer": {"class_name": "Ones", "config": {}}, "name": "batch_normalization_91", "gamma_constraint": null, "beta_constraint": null, "gamma_regularizer": null, "beta_initializer": {"class_name": "Zeros", "config": {}}, "momentum": 0.99, "trainable": true, "center": true, "scale": false, "axis": 3, "moving_mean_initializer": {"class_name": "Zeros", "config": {}}, "epsilon": 0.001, "moving_variance_initializer": {"class_name": "Ones", "config": {}}}}, {"name": "activation_87", "inbound_nodes": [[["batch_normalization_87", 0, 0, {}]]], "class_name": "Activation", "config": {"name": "activation_87", "activation": "relu", "trainable": true}}, {"name": "activation_91", "inbound_nodes": [[["batch_normalization_91", 0, 0, {}]]], "class_name": "Activation", "config": {"name": "activation_91", "activation": "relu", "trainable": true}}, {"name": "conv2d_88", "inbound_nodes": [[["activation_87", 0, 0, {}]]], "class_name": "Conv2D", "config": {"data_format": "channels_last", "bias_constraint": null, "filters": 384, "activity_regularizer": null, "strides": [1, 1], "kernel_initializer": {"class_name": "VarianceScaling", "config": {"distribution": "uniform", "scale": 1.0, "seed": null, "mode": "fan_avg"}}, "bias_regularizer": null, "padding": "same", "kernel_size": [1, 3], "trainable": true, "kernel_constraint": null, "activation": "linear", "name": "conv2d_88", "use_bias": false, "kernel_regularizer": null, "bias_initializer": {"class_name": "Zeros", "config": {}}, "dilation_rate": [1, 1]}}, {"name": "conv2d_89", "inbound_nodes": [[["activation_87", 0, 0, {}]]], "class_name": "Conv2D", "config": {"data_format": "channels_last", "bias_constraint": null, "filters": 384, "activity_regularizer": null, "strides": [1, 1], "kernel_initializer": {"class_name": "VarianceScaling", "config": {"distribution": "uniform", "scale": 1.0, "seed": null, "mode": "fan_avg"}}, "bias_regularizer": null, "padding": "same", "kernel_size": [3, 1], "trainable": true, "kernel_constraint": null, "activation": "linear", "name": "conv2d_89", "use_bias": false, "kernel_regularizer": null, "bias_initializer": {"class_name": "Zeros", "config": {}}, "dilation_rate": [1, 1]}}, {"name": "conv2d_92", "inbound_nodes": [[["activation_91", 0, 0, {}]]], "class_name": "Conv2D", "config": {"data_format": "channels_last", "bias_constraint": null, "filters": 384, "activity_regularizer": null, "strides": [1, 1], "kernel_initializer": {"class_name": "VarianceScaling", "config": {"distribution": "uniform", "scale": 1.0, "seed": null, "mode": "fan_avg"}}, "bias_regularizer": null, "padding": "same", "kernel_size": [1, 3], "trainable": true, "kernel_constraint": null, "activation": "linear", "name": "conv2d_92", "use_bias": false, "kernel_regularizer": null, "bias_initializer": {"class_name": "Zeros", "config": {}}, "dilation_rate": [1, 1]}}, {"name": "conv2d_93", "inbound_nodes": [[["activation_91", 0, 0, {}]]], "class_name": "Conv2D", "config": {"data_format": "channels_last", "bias_constraint": null, "filters": 384, "activity_regularizer": null, "strides": [1, 1], "kernel_initializer": {"class_name": "VarianceScaling", "config": {"distribution": "uniform", "scale": 1.0, "seed": null, "mode": "fan_avg"}}, "bias_regularizer": null, "padding": "same", "kernel_size": [3, 1], "trainable": true, "kernel_constraint": null, "activation": "linear", "name": "conv2d_93", "use_bias": false, "kernel_regularizer": null, "bias_initializer": {"class_name": "Zeros", "config": {}}, "dilation_rate": [1, 1]}}, {"name": "average_pooling2d_9", "inbound_nodes": [[["mixed9", 0, 0, {}]]], "class_name": "AveragePooling2D", "config": {"name": "average_pooling2d_9", "pool_size": [3, 3], "strides": [1, 1], "trainable": true, "padding": "same", "data_format": "channels_last"}}, {"name": "conv2d_86", "inbound_nodes": [[["mixed9", 0, 0, {}]]], "class_name": "Conv2D", "config": {"data_format": "channels_last", "bias_constraint": null, "filters": 320, "activity_regularizer": null, "strides": [1, 1], "kernel_initializer": {"class_name": "VarianceScaling", "config": {"distribution": "uniform", "scale": 1.0, "seed": null, "mode": "fan_avg"}}, "bias_regularizer": null, "padding": "same", "kernel_size": [1, 1], "trainable": true, "kernel_constraint": null, "activation": "linear", "name": "conv2d_86", "use_bias": false, "kernel_regularizer": null, "bias_initializer": {"class_name": "Zeros", "config": {}}, "dilation_rate": [1, 1]}}, {"name": "batch_normalization_88", "inbound_nodes": [[["conv2d_88", 0, 0, {}]]], "class_name": "BatchNormalization", "config": {"beta_regularizer": null, "gamma_initializer": {"class_name": "Ones", "config": {}}, "name": "batch_normalization_88", "gamma_constraint": null, "beta_constraint": null, "gamma_regularizer": null, "beta_initializer": {"class_name": "Zeros", "config": {}}, "momentum": 0.99, "trainable": true, "center": true, "scale": false, "axis": 3, "moving_mean_initializer": {"class_name": "Zeros", "config": {}}, "epsilon": 0.001, "moving_variance_initializer": {"class_name": "Ones", "config": {}}}}, {"name": "batch_normalization_89", "inbound_nodes": [[["conv2d_89", 0, 0, {}]]], "class_name": "BatchNormalization", "config": {"beta_regularizer": null, "gamma_initializer": {"class_name": "Ones", "config": {}}, "name": "batch_normalization_89", "gamma_constraint": null, "beta_constraint": null, "gamma_regularizer": null, "beta_initializer": {"class_name": "Zeros", "config": {}}, "momentum": 0.99, "trainable": true, "center": true, "scale": false, "axis": 3, "moving_mean_initializer": {"class_name": "Zeros", "config": {}}, "epsilon": 0.001, "moving_variance_initializer": {"class_name": "Ones", "config": {}}}}, {"name": "batch_normalization_92", "inbound_nodes": [[["conv2d_92", 0, 0, {}]]], "class_name": "BatchNormalization", "config": {"beta_regularizer": null, "gamma_initializer": {"class_name": "Ones", "config": {}}, "name": "batch_normalization_92", "gamma_constraint": null, "beta_constraint": null, "gamma_regularizer": null, "beta_initializer": {"class_name": "Zeros", "config": {}}, "momentum": 0.99, "trainable": true, "center": true, "scale": false, "axis": 3, "moving_mean_initializer": {"class_name": "Zeros", "config": {}}, "epsilon": 0.001, "moving_variance_initializer": {"class_name": "Ones", "config": {}}}}, {"name": "batch_normalization_93", "inbound_nodes": [[["conv2d_93", 0, 0, {}]]], "class_name": "BatchNormalization", "config": {"beta_regularizer": null, "gamma_initializer": {"class_name": "Ones", "config": {}}, "name": "batch_normalization_93", "gamma_constraint": null, "beta_constraint": null, "gamma_regularizer": null, "beta_initializer": {"class_name": "Zeros", "config": {}}, "momentum": 0.99, "trainable": true, "center": true, "scale": false, "axis": 3, "moving_mean_initializer": {"class_name": "Zeros", "config": {}}, "epsilon": 0.001, "moving_variance_initializer": {"class_name": "Ones", "config": {}}}}, {"name": "conv2d_94", "inbound_nodes": [[["average_pooling2d_9", 0, 0, {}]]], "class_name": "Conv2D", "config": {"data_format": "channels_last", "bias_constraint": null, "filters": 192, "activity_regularizer": null, "strides": [1, 1], "kernel_initializer": {"class_name": "VarianceScaling", "config": {"distribution": "uniform", "scale": 1.0, "seed": null, "mode": "fan_avg"}}, "bias_regularizer": null, "padding": "same", "kernel_size": [1, 1], "trainable": true, "kernel_constraint": null, "activation": "linear", "name": "conv2d_94", "use_bias": false, "kernel_regularizer": null, "bias_initializer": {"class_name": "Zeros", "config": {}}, "dilation_rate": [1, 1]}}, {"name": "batch_normalization_86", "inbound_nodes": [[["conv2d_86", 0, 0, {}]]], "class_name": "BatchNormalization", "config": {"beta_regularizer": null, "gamma_initializer": {"class_name": "Ones", "config": {}}, "name": "batch_normalization_86", "gamma_constraint": null, "beta_constraint": null, "gamma_regularizer": null, "beta_initializer": {"class_name": "Zeros", "config": {}}, "momentum": 0.99, "trainable": true, "center": true, "scale": false, "axis": 3, "moving_mean_initializer": {"class_name": "Zeros", "config": {}}, "epsilon": 0.001, "moving_variance_initializer": {"class_name": "Ones", "config": {}}}}, {"name": "activation_88", "inbound_nodes": [[["batch_normalization_88", 0, 0, {}]]], "class_name": "Activation", "config": {"name": "activation_88", "activation": "relu", "trainable": true}}, {"name": "activation_89", "inbound_nodes": [[["batch_normalization_89", 0, 0, {}]]], "class_name": "Activation", "config": {"name": "activation_89", "activation": "relu", "trainable": true}}, {"name": "activation_92", "inbound_nodes": [[["batch_normalization_92", 0, 0, {}]]], "class_name": "Activation", "config": {"name": "activation_92", "activation": "relu", "trainable": true}}, {"name": "activation_93", "inbound_nodes": [[["batch_normalization_93", 0, 0, {}]]], "class_name": "Activation", "config": {"name": "activation_93", "activation": "relu", "trainable": true}}, {"name": "batch_normalization_94", "inbound_nodes": [[["conv2d_94", 0, 0, {}]]], "class_name": "BatchNormalization", "config": {"beta_regularizer": null, "gamma_initializer": {"class_name": "Ones", "config": {}}, "name": "batch_normalization_94", "gamma_constraint": null, "beta_constraint": null, "gamma_regularizer": null, "beta_initializer": {"class_name": "Zeros", "config": {}}, "momentum": 0.99, "trainable": true, "center": true, "scale": false, "axis": 3, "moving_mean_initializer": {"class_name": "Zeros", "config": {}}, "epsilon": 0.001, "moving_variance_initializer": {"class_name": "Ones", "config": {}}}}, {"name": "activation_86", "inbound_nodes": [[["batch_normalization_86", 0, 0, {}]]], "class_name": "Activation", "config": {"name": "activation_86", "activation": "relu", "trainable": true}}, {"name": "mixed9_1", "inbound_nodes": [[["activation_88", 0, 0, {}], ["activation_89", 0, 0, {}]]], "class_name": "Concatenate", "config": {"name": "mixed9_1", "trainable": true, "axis": 3}}, {"name": "concatenate_2", "inbound_nodes": [[["activation_92", 0, 0, {}], ["activation_93", 0, 0, {}]]], "class_name": "Concatenate", "config": {"name": "concatenate_2", "trainable": true, "axis": 3}}, {"name": "activation_94", "inbound_nodes": [[["batch_normalization_94", 0, 0, {}]]], "class_name": "Activation", "config": {"name": "activation_94", "activation": "relu", "trainable": true}}, {"name": "mixed10", "inbound_nodes": [[["activation_86", 0, 0, {}], ["mixed9_1", 0, 0, {}], ["concatenate_2", 0, 0, {}], ["activation_94", 0, 0, {}]]], "class_name": "Concatenate", "config": {"name": "mixed10", "trainable": true, "axis": 3}}, {"name": "global_average_pooling2d_1", "inbound_nodes": [[["mixed10", 0, 0, {}]]], "class_name": "GlobalAveragePooling2D", "config": {"name": "global_average_pooling2d_1", "trainable": true, "data_format": "channels_last"}}, {"name": "dense_1", "inbound_nodes": [[["global_average_pooling2d_1", 0, 0, {}]]], "class_name": "Dense", "config": {"bias_constraint": null, "name": "dense_1", "kernel_initializer": {"class_name": "VarianceScaling", "config": {"distribution": "uniform", "scale": 1.0, "seed": null, "mode": "fan_avg"}}, "bias_regularizer": null, "activity_regularizer": null, "bias_initializer": {"class_name": "Zeros", "config": {}}, "kernel_constraint": null, "activation": "relu", "trainable": true, "use_bias": true, "units": 1024, "kernel_regularizer": null}}, {"name": "dense_2", "inbound_nodes": [[["dense_1", 0, 0, {}]]], "class_name": "Dense", "config": {"bias_constraint": null, "name": "dense_2", "kernel_initializer": {"class_name": "VarianceScaling", "config": {"distribution": "uniform", "scale": 1.0, "seed": null, "mode": "fan_avg"}}, "bias_regularizer": null, "activity_regularizer": null, "bias_initializer": {"class_name": "Zeros", "config": {}}, "kernel_constraint": null, "activation": "softmax", "trainable": true, "use_bias": true, "units": 133, "kernel_regularizer": null}}]}, "backend": "tensorflow", "class_name": "Model"}